neural network/pytorch/model.ckpt (torch, 2591 bytes, 3 tensors)

hidden1.weight f4 [8, 30]
0.28513166 0.18426517 -0.3796685 0.39874375 -0.4903888 -0.29774186 0.15792115 0.015650354
0.111182004 -0.4348205 -0.31353295 -0.40084177 -0.4770028 -0.37000102 0.03455009 0.12634689
-0.12771171 -0.20910041 0.08916768 -0.008316211 0.21077313 -0.46835783 -0.048208438 -0.078748986
-0.033737555 0.080225445 0.28473252 0.14755559 0.18406078 -0.20615615 0.33402258 -0.36933422
-0.33455378 -0.11177923 0.114991084 0.03305987 0.30123955 0.17553872 -0.13158879 -0.15356511
0.21133158 -0.2187579 0.35918385 -0.13274206 0.07755578 0.077353194 0.17576905 0.15946253
-0.06359349 0.07212861 0.0020073599 -0.17490992 -0.00076475757 0.24282058 -0.06439386 -0.31002292
-0.22880366 -0.55435693 -0.48525858 -0.19044866 0.07831432 0.2426651 -0.43941823 -0.49500912
-0.42534918 -0.22364877 0.13339229 0.18611155 0.36183304 0.17455068 0.052879523 -0.15977769
-0.3991487 -0.1067162 0.39221665 -0.09017066 0.06164302 0.22098844 -0.037110273 0.26086408
-0.2488702 0.06959079 -0.14807889 -0.12904762 0.040674247 -0.024951696 0.3717023 0.058637306
0.22385585 0.10305083 -0.1257277 -0.5028849 0.052191883 -0.10194953 0.14055419 0.063579895
-0.16322248 -0.018763382 0.07075741 -0.46710795 0.2965646 -0.20541915 0.071415156 -0.051901456
-0.025288768 0.46665356 -0.16017455 -0.09129131 0.010995996 0.32940692 -0.5205067 0.06446798
-0.10089907 0.28203785 0.016430974 -0.29580808 -0.274397 -0.08650269 -0.23611131 -0.22689638
0.4278474 -0.5569004 -0.20947403 -0.23013602 0.1231102 0.19638462 0.01744726 0.3107234
-0.2804709 -0.21807107 0.2672664 -0.4689023 -0.010345326 0.005151516 -0.20700713 -0.24716608
0.022612067 -0.0892945 -0.10680481 0.14107911 0.07858382 -0.09985566 0.12184328 -0.019710135
0.016708432 -0.64932877 0.11816073 0.13001865 -0.022861255 -0.047747415 -0.14930297 -0.07944667
0.45133424 0.14967267 0.40351355 0.043450627 -0.25717953 -0.16081464 -0.12797001 -0.098700285
0.0016438616 0.296983 0.28686967 -0.03362762 -0.45708275 0.07162176 0.03214614 -0.23130573
-0.032274082 -0.14409468 0.16939095 0.04894542 0.027863784 0.06988457 -0.01973675 0.28751206
-0.16615951 0.15007113 -0.10820093 -0.0047996836 -0.077888645 0.026676115 0.2018592 -0.33767754
0.46196982 -0.19972125 -0.053898625 0.12760292 -0.014810534 -0.11207694 0.21761003 0.25874165
0.46541244 -0.41717494 -0.48563862 0.24717727 0.2641208 -0.049120374 -0.11363621 -0.22253175
0.39558727 -0.100293495 -0.26055476 -0.028627805 -0.08803616 0.42309228 -0.17223875 -0.3134929
-0.47226566 0.018419243 -0.030670661 -0.1496168 -0.09927433 -0.03916811 0.073400915 -0.005370286
-0.15501048 0.080239266 -0.047363788 0.12391754 -0.14670883 -0.16881356 -0.078811936 -0.15487103
0.047132112 -0.17997338 0.18032251 -0.10554696 -0.08024285 0.020131392 0.0031651643 0.10157287
-0.17199782 -0.044444356 -0.07054792 -0.13389699 0.09236752 -0.15464135 -0.15290017 0.13507666
00000000: c7fc 913e 02b0 3c3e e963 c2be 2428 cc3e
00000010: 3e14 fbbe 9f71 98be 15b6 213e 2c35 803c
00000020: 64b3 e33d cba0 debe 6487 a0be 223b cdbe
00000030: b639 f4be c670 bdbe 6584 0d3d 1461 013e
00000040: dcc6 02be 6b1e 56be 8b9d b63d b840 08bc
00000050: e9d4 573e 99cc efbe 3676 45bd 2647 a1bd
00000060: 6430 0abd 3d4d a43d 76c8 913e d018 173e
00000070: 6e7a 3c3e 991a 53be 0205 ab3e 6019 bdbe
00000080: a24a abbe 82ec e4bd 7280 eb3d c969 073d
00000090: 123c 9a3e 6cc0 333e 36bf 06be 2c40 1dbe
000000a0: 4e67 583e 1202 60be f2e6 b73e 89ed 07be
000000b0: 91d5 9e3d 5a6b 9e3d cdfc 333e 254a 233e
000000c0: 4e3d 82bd 2ab8 933d e98d 033b 961b 33be
000000d0: 037a 48ba f5a5 783e eee0 83bd 53bb 9ebe
000000e0: 824b 6abe 56ea 0dbf d073 f8be f904 43be
000000f0: 4263 a03d 337d 783e 6dfb e0be d671 fdbe
00000100: 5ec7 d9be 2f04 65be fd97 083e 0794 3e3e
00000110: 2e42 b93e 6abd 323e 3398 583d c39c 23be
00000120: 385d ccbe 068e dabd 9fd0 c83e 65ab b8bd
00000130: 647d 7c3d cb4a 623e f100 18bd fa8f 853e
00000140: d4d7 7ebe 9e85 8e3d fea1 17be 0f25 04be
00000150: 0a9a 263d 8067 ccbc c44f be3e ac2d 703d
00000160: 783a 653e 500c d33d c3be 00be 11bd 00bf
00000170: 28c7 553d eaca d0bd 70ed 0f3e 2d36 823d
00000180: cb23 27be aab5 99bc 43e9 903d c628 efbe
00000190: 51d7 973e 6659 52be 1c42 923d 9f96 54bd
000001a0: 642a cfbc 37ed ee3e cc04 24be f0f6 babd
000001b0: 8d28 343c 06a8 a83e ed3f 05bf ca07 843d
000001c0: 2ca4 cebd 4467 903e 409a 863c 2874 97be
000001d0: c37d 8cbe 5328 b1bd 2ac7 71be 8657 68be
000001e0: d00e db3e 0691 0ebf 5c80 56be c7a8 6bbe
000001f0: 3321 fc3d 0d19 493e 8eed 8e3c 2317 9f3e
00000200: e299 8fbe 064e 5fbe 24d7 883e f613 f0be
00000210: 717f 29bc 0cce a83b adf9 53be 1b19 7dbe
00000220: f13c b93c 09e0 b6bd 7bbc dabd 0b77 103e
00000230: 8ef0 a03d 2081 ccbd f888 f93d 2677 a1bc
00000240: 1fe0 883c 693a 26bf 41fe f13d 9c23 053e
00000250: 8747 bbbc cb92 43bd e1e2 18be f0b4 a2bd
00000260: 4815 e73e cb43 193e 5499 ce3e 49f9 313d
00000270: 09ad 83be 98ac 24be 920a 03be 6023 cabd
00000280: d876 d73a 280e 983e 95e0 923e 1ebd 09bd
00000290: c006 eabe 6eae 923d acab 033d 69db 6cbe
000002a0: d431 04bd 8e8d 13be d274 2d3e fe7a 483d
000002b0: 9742 e43c a41f 8f3d f7ae a1bc c834 933e
000002c0: b825 2abe 3fac 193e 7398 ddbd aa46 9dbb
000002d0: 1584 9fbd de87 da3c 2eb4 4e3e 12e4 acbe
000002e0: 4f87 ec3e ba83 4cbe cec4 5cbd 57aa 023e
000002f0: e2a7 72bc 9888 e5bd 2ad5 5e3e c979 843e
00000300: 8a4a ee3e f497 d5be a0a5 f8be 0a1c 7d3e
00000310: d73a 873e 7232 49bd 1aba e8bd 5ddf 63be
00000320: 6a8a ca3e ad66 cdbd 6f67 85be dc84 eabc
00000330: 4d4c b4bd 8d9f d83e 5b5f 30be 2482 a0be
00000340: cecc f1be f4e3 963c 0a41 fbbc 2535 19be
00000350: 5750 cbbd bd6e 20bd 3853 963d 39f9 afbb
00000360: 11bb 1ebe 7c54 a43d 8800 42bd 7bc8 fd3d
00000370: d73a 16be 76dd 2cbe 2768 a1bd 8396 1ebe
00000380: 9a0d 413d f14a 38be 77a6 383e 0129 d8bd
00000390: 5d56 a4bd 97ea a43c a56e 4f3b 7005 d03d
000003a0: 3220 30be 490b 36bd 6e7b 90bd 4b1c 09be
000003b0: 2f2b bd3d 4d5a 1ebe dd91 1cbe 8951 0a3e

hidden1.bias f4 [8]
-0.1598009 1.5268531 0.70812845 -0.1826988 -0.20987259 2.3061917 -0.3906443 -0.07402374
00000000: d9a2 23be ec6f c33f e847 353f 6515 3bbe
00000010: d7e8 56be a598 1340 8802 c8be c299 97bd

output.weight f4 [1, 8]
1.2693268 0.3455921 0.18887794 -1.0168853 -0.7605922 0.24433205 -0.26092786 0.041652452
00000000: 4d79 a23f 73f1 b03e 3869 413e 4c29 82bf
00000010: 2cb6 42bf 2e32 7a3e 5698 85be c39b 2a3d
