model.ckpt (torch, 5599 bytes, 5 tensors)

hidden1.weight f4 [16, 32]
0	0x3e5d4191	0.21607043
1	0x3e6c2595	0.23061211
2	0x3ec25feb	0.37963805
3	0x3ec6412a	0.3872159
4	0x3e7c1970	0.24619079
5	0x3ea42ced	0.32065526
6	0x3e6470e1	0.22308685
7	0x3e214ebd	0.15752693
8	0x3e592c74	0.21208364
9	0x3e6a67b4	0.22891122
10	0x3e159642	0.146081
11	0x3eb3ed69	0.35142067
12	0x3ec35c77	0.38156483
13	0x3e919a65	0.28438106
14	0x3e46d199	0.19415893
15	0x3dec039c	0.11524126
16	0x3e876ff3	0.26452598
17	0x3e646d0a	0.2230722
18	0x3e8a1e5b	0.26976284
19	0x3dd8b02c	0.10580477
20	0x3e3be142	0.18347648
21	0x3e91723a	0.2840746
22	0x3e06c61f	0.13161515
23	0x3e96ea1a	0.2947548
24	0x3e7d64fc	0.24745554
25	0x3ea8f587	0.32999822
26	0x3e90c58e	0.28275722
27	0x3e966d62	0.29380327
28	0x3e494d24	0.19658333
29	0x3e7f02b5	0.24903376
30	0xbf441253	-0.7659046
31	0xbf26ceb2	-0.6515914
32	0x3f0ccc20	0.5499897
33	0x3ecb32ad	0.396871
34	0x3f1d46f2	0.6143638
35	0x3f192d62	0.59834874
36	0x3f298ec0	0.66233444
37	0x3f189ac7	0.5961117
38	0x3f0f165b	0.55893487
39	0x3f179d66	0.59224546
40	0x3f164135	0.5869325
41	0x3ed80305	0.42189804
42	0x3f1279ac	0.57216907
43	0x3f0eb793	0.5574886
44	0x3efc3ff0	0.4926753
45	0x3ef86e65	0.48521724
46	0x3ef78c70	0.48349333
47	0x3f11f9ac	0.57021594
48	0x3ef9d36f	0.48794124
49	0x3f12aa6d	0.572913
50	0x3f1b69cd	0.60708314
51	0x3f1784ca	0.59186995
52	0x3f0cb74d	0.54967195
53	0x3f0a88da	0.5411507
54	0x3ef77f85	0.48339477
55	0x3f246d98	0.64229727
56	0x3f073521	0.52815443
57	0x3ef326f7	0.47490665
58	0x3ef38ce0	0.47568417
59	0x3f1790bf	0.5920524
60	0x3efa579e	0.48894972
61	0x3f1850fc	0.5949857
62	0x3f23c838	0.63977385
63	0x3f206c3d	0.6266516
64	0xbd2eb0b0	-0.04264897
65	0xbc070662	-0.008241268
66	0x3ca1d542	0.01975501
67	0xbdb8776c	-0.09007153
68	0xbcd0052d	-0.025393093
69	0x3c0ef02e	0.0087242555
70	0x3adc4894	0.0016806298
71	0xbda6f53e	-0.08152245
72	0x3c92a7a8	0.01790221
73	0x3d18c299	0.037294958
74	0xbd7148ef	-0.058907446
75	0xbdaa0d46	-0.08303313
76	0x3dc1222e	0.094303474
77	0xbb89d29e	-0.0042060157
78	0xbb7bd668	-0.0038427357
79	0x3d56f25c	0.052477226
80	0x3d058205	0.0325947
81	0xbcd6f99e	-0.026242074
82	0xbd57a1e8	-0.05264464
83	0xbda0924c	-0.07840404
84	0xbbc828b2	-0.006108367
85	0x3d54696f	0.05185836
86	0x3c266079	0.010154837
87	0xbdbbfe75	-0.09179393
88	0x3cd7fac8	0.026364699
89	0xbcf35fc7	-0.029708756
90	0xbd70b7fb	-0.058769207
91	0xbda511b9	-0.08060021
92	0xbd3d147e	-0.04616212
93	0x3d12b5cd	0.03581791
94	0x3a570b53	0.00082032866
95	0xbd8c2bdd	-0.06844304
96	0x3f16b66c	0.58872104
97	0x3f05b5b3	0.52230376
98	0x3f2e9dc8	0.68209505
99	0x3f2a9040	0.6662636
100	0x3f16f18f	0.5896234
101	0x3f15d4f5	0.5852807
102	0x3f0620c0	0.5239372
103	0x3f1767ae	0.5914258
104	0x3f12b1e6	0.573027
105	0x3edfc468	0.43704534
106	0x3f13cae5	0.5773147
107	0x3f111a27	0.5668053
108	0x3f1c41bc	0.610378
109	0x3f0e0245	0.55472213
110	0x3ee09e0d	0.43870583
111	0x3ef39d76	0.4758107
112	0x3f045c4a	0.5170332
113	0x3f0bb00f	0.5456552
114	0x3f032253	0.5122425
115	0x3f13b79a	0.5770203
116	0x3ee57e6f	0.44823024
117	0x3ee2effc	0.4432372
118	0x3ec3a5cf	0.3821244
119	0x3f23db1f	0.6400623
120	0x3f0c63e9	0.5483995
121	0x3eee8f4f	0.4659371
122	0x3ef6ad6e	0.4817919
123	0x3f18f883	0.597542
124	0x3f0494da	0.5178963
125	0x3f290a8f	0.66031736
126	0x3f111a6b	0.56680936
127	0x3f1d7850	0.6151171
128	0x3f1802bd	0.5937918
129	0x3efaa94f	0.48957297
130	0x3f0e825e	0.55667675
131	0x3f0ef234	0.5583832
132	0x3f1e691e	0.61879146
133	0x3f1fd6f1	0.6243735
134	0x3ee107d0	0.43951273
135	0x3efbd249	0.49183872
136	0x3eed21c5	0.46314827
137	0x3ee56523	0.44803724
138	0x3edb1ad5	0.4279391
139	0x3f0b21e4	0.5434859
140	0x3f256728	0.6461053
141	0x3ef83576	0.48478287
142	0x3edbb482	0.42911154
143	0x3f157b66	0.58391416
144	0x3ef917bf	0.4865093
145	0x3eda8f8e	0.4268765
146	0x3eee05cc	0.46488798
147	0x3ef2d1ae	0.47425598
148	0x3f08affe	0.5339354
149	0x3efa918d	0.4893917
150	0x3efde379	0.4958761
151	0x3f25f3f0	0.64825344
152	0x3f09daad	0.538493
153	0x3f0deb3c	0.55437064
154	0x3ed8b1fe	0.42323297
155	0x3f03b74e	0.51451576
156	0x3f09c093	0.5380947
157	0x3ef687bb	0.4815043
158	0x3f225044	0.63403726
159	0x3f15f0ea	0.5857073
160	0xbd850afb	-0.06496235
161	0xbda6f84d	-0.08152828
162	0xbdc7cdb9	-0.09756035
163	0xbdc3ea71	-0.095662005
164	0x3b06b61b	0.002055532
165	0x3d3346bc	0.04376863
166	0xbd83b689	-0.064313
167	0xbc1df76e	-0.009641511
168	0x3d6a1e70	0.057157934
169	0x3d9e22ed	0.07721505
170	0xbca42f3f	-0.02004206
171	0xbd0b1925	-0.033959527
172	0xbd0ccebb	-0.03437684
173	0x3d49771d	0.04918586
174	0xbd861250	-0.065464616
175	0xbd7a9925	-0.061181206
176	0x3d892a84	0.06697562
177	0xbd6e635e	-0.058200233
178	0xbdc0cd7f	-0.09414195
179	0xbdbb897b	-0.09157082
180	0xbda77a83	-0.08177664
181	0x3bbf8252	0.005844393
182	0xbd86700e	-0.065643415
183	0xbbbc5eb4	-0.005748594
184	0xbd9154a4	-0.07096222
185	0x3a5051a0	0.00079467334
186	0x3d1bb23e	0.038011782
187	0xbbf82be5	-0.007573592
188	0xbdae7e28	-0.08520156
189	0x3ca15878	0.019695505
190	0xbd1fec6e	-0.039043836
191	0xbd789f5c	-0.060698852
192	0x3f01f02b	0.5075709
193	0x3f0621b8	0.523952
194	0x3f176190	0.59133244
195	0x3f0a54ad	0.54035455
196	0x3f039689	0.51401573
197	0x3f25ab0b	0.64714116
198	0x3ecf3bda	0.4047535
199	0x3f1baf6f	0.60814565
200	0x3f0321b1	0.51223284
201	0x3ed2b0d7	0.41150543
202	0x3f1764db	0.5913827
203	0x3f177733	0.5916626
204	0x3f0352ec	0.51298404
205	0x3ed76309	0.42067745
206	0x3f1d434e	0.61430824
207	0x3f06aa31	0.5260344
208	0x3f16cf0c	0.5890968
209	0x3ef154ee	0.4713511
210	0x3f1c97c5	0.6116908
211	0x3f0d89b7	0.5528826
212	0x3f07c276	0.530311
213	0x3ece2cb7	0.4026849
214	0x3ecb6ada	0.3972996
215	0x3f237335	0.63847667
216	0x3eff0211	0.49806264
217	0x3f035d7c	0.5131452
218	0x3ed2c270	0.4116397
219	0x3f23a785	0.6392749
220	0x3f10ec47	0.5661053
221	0x3f005223	0.5012533
222	0x3f17dfd0	0.59325886
223	0x3f1a4003	0.60253924
224	0x3f123b1e	0.57121456
225	0x3ef75720	0.4830866
226	0x3f0ada59	0.5423942
227	0x3f14372d	0.5789669
228	0x3f011d24	0.5043509
229	0x3f1adce5	0.6049331
230	0x3f0b2d73	0.54366225
231	0x3f17640a	0.5913702
232	0x3eef8557	0.46781418
233	0x3eeb23c4	0.45925725
234	0x3f145cbe	0.57954013
235	0x3f150085	0.5820392
236	0x3ef0a1df	0.46998498
237	0x3efea3ee	0.49734443
238	0x3edee070	0.43530607
239	0x3f117e4d	0.56833345
240	0x3f0128d6	0.50452936
241	0x3f1b27af	0.6060743
242	0x3ef0fefb	0.47069535
243	0x3f10d29b	0.5657136
244	0x3f1ad059	0.60474163
245	0x3ecdfafa	0.40230542
246	0x3ef185bd	0.47172347
247	0x3f1276ce	0.5721253
248	0x3f059924	0.521868
249	0x3f00e8a5	0.5035499
250	0x3ee7809b	0.45215306
251	0x3f23d057	0.63989776
252	0x3ef8305d	0.48474398
253	0x3efc2eb5	0.49254385
254	0x3f0b5a36	0.54434526
255	0x3f0d8f3b	0.5529668

hidden1.bias f4 [16]
0	0x406c1f42	3.6894078
1	0x408a2337	4.3167987
2	0xbd874fcb	-0.06607016
3	0x408e2ec4	4.4432087
4	0x408ebfb5	4.4609017
5	0x3d98bbb1	0.07457674
6	0x408d6bf9	4.4194303
7	0x408e89bc	4.4543133
8	0x406a3907	3.6597307
9	0x408d5ccc	4.4175777
10	0x408a8556	4.3287764
11	0x3c4ab13e	0.012371359
12	0x406e93e4	3.7277765
13	0x408890b0	4.267662
14	0x408b1188	4.34589
15	0x408cac6b	4.396047

hidden2.weight f4 [16, 16]
0	0x3cdfcc4d	0.027319098
1	0xbd8ef0b5	-0.06979505
2	0xbe04dc09	-0.12974562
3	0x3dbb6164	0.09149435
4	0xbbccf47e	-0.0062547317
5	0xbc2c1a6f	-0.010504349
6	0x3c0252ea	0.007954339
7	0x3d2683d9	0.040653083
8	0xbd4cc918	-0.049996465
9	0x3d75ef59	0.060042713
10	0x3d8d554d	0.069010355
11	0x3d7a2bcf	0.061076935
12	0xbdbe8915	-0.0930349
13	0xbdca33b2	-0.09873141
14	0xbe15a66e	-0.14614269
15	0xbda13689	-0.0787173
16	0x3fb0182c	1.3757377
17	0x3f20aa6e	0.62760055
18	0xbd1d713b	-0.038438063
19	0x3f369ab0	0.71329784
20	0x3f520376	0.8203653
21	0xbdcf35e2	-0.10117699
22	0x3f2b3b21	0.668871
23	0x3f55e86a	0.8355776
24	0x3fc44311	1.5332967
25	0x3f4ad351	0.79228693
26	0x3f355b52	0.7084247
27	0xbd0bb5c8	-0.034108907
28	0x3fb6a0c4	1.4267812
29	0x3f20960b	0.6272895
30	0x3f3be69a	0.73398745
31	0x3f50489e	0.81360805
32	0x3fa1eccb	1.2650388
33	0x3f3c8dc9	0.73653847
34	0xbb94cf6c	-0.004541328
35	0x3f28c74d	0.6592911
36	0x3f539c14	0.8266003
37	0x3d60a69a	0.054846384
38	0x3f56456d	0.83699685
39	0x3f5a77c1	0.8533898
40	0x3fda8d05	1.7074286
41	0x3f52389d	0.82117635
42	0x3f3ec266	0.7451538
43	0xbddc26ab	-0.10749563
44	0x3fc543a5	1.5411268
45	0x3f2f798f	0.6854486
46	0x3f365cc3	0.71235293
47	0x3f592182	0.84816754
48	0x3fb5d83b	1.4206613
49	0x3f177336	0.5916017
50	0xbcad55b6	-0.021159034
51	0x3f4cf0b1	0.80054766
52	0x3f23b4c6	0.63947713
53	0x3d49bc1c	0.04925166
54	0x3f52164b	0.82065266
55	0x3f3088bb	0.68958634
56	0x3fbb95d7	1.4655102
57	0x3f41c690	0.7569361
58	0x3f261637	0.6487765
59	0xbd5d36e7	-0.054007437
60	0x3fb8c107	1.4433907
61	0x3f1e0604	0.6172793
62	0x3f53f0b5	0.82789165
63	0x3f4a1623	0.7894003
64	0x3fb6a13e	1.4267957
65	0x3f5e838b	0.8691947
66	0xbdfe97f0	-0.124313235
67	0x3f60ac1d	0.87762624
68	0x3f542565	0.8286956
69	0xbd2e3261	-0.042528514
70	0x3f201e37	0.62546104
71	0x3f48004f	0.7812547
72	0x3fbc4573	1.4708694
73	0x3f30326b	0.6882693
74	0x3f43912a	0.7639338
75	0x3e0a43b0	0.13502383
76	0x3fb820ba	1.4384987
77	0x3f512414	0.81695676
78	0x3f569bbf	0.838314
79	0x3f3a6856	0.72815454
80	0xbda7d2a0	-0.081944704
81	0xbe08969e	-0.13338706
82	0xba168c4f	-0.00057429535
83	0xbdd2d5a1	-0.10294653
84	0x3daf8ea2	0.08572127
85	0x3bce1974	0.0062896553
86	0xbdbc64d9	-0.09198923
87	0x3cd4979d	0.025951201
88	0xbdc49a4c	-0.09599742
89	0x3d823ebe	0.063596234
90	0xbd49ee7b	-0.0492997
91	0xbc8bffc3	-0.01708973
92	0xbdae96c2	-0.085248485
93	0xbdca3660	-0.098736525
94	0x3d687fd7	0.056762543
95	0x3da7ae67	0.081875615
96	0x3db79068	0.0896309
97	0x3d6ffc53	0.058590245
98	0xbe012706	-0.12612543
99	0xbd8c3f2b	-0.06847986
100	0xbe086d99	-0.13323058
101	0xbdf7fd44	-0.121088535
102	0x3ddfa23f	0.10919618
103	0x3d4e6a8c	0.05039458
104	0x3d4e7626	0.050405644
105	0x3cdc57b0	0.026897281
106	0x3cb90eaa	0.02259
107	0x3d051bbb	0.03249715
108	0xbdea7464	-0.11447981
109	0xbd830af7	-0.06398576
110	0xbdc0377a	-0.09385581
111	0xbd6246e9	-0.055243406
112	0xbd640e9d	-0.055678
113	0xbe0e676f	-0.13906644
114	0x3d2a94d7	0.04164585
115	0x3dbff0d4	0.09372106
116	0x3cef2465	0.029192159
117	0x3cfbb451	0.03072563
118	0x3b9a5395	0.004709671
119	0xbd270bdf	-0.040782806
120	0x3dc2e3e6	0.095161244
121	0xbdf8d0e4	-0.12149218
122	0xbc6dc8b4	-0.014513183
123	0xbd2575f6	-0.0403957
124	0xbc08058d	-0.008302105
125	0x3da87d01	0.082269676
126	0x3d315999	0.043298338
127	0xbdeff467	-0.11716538
128	0x3fb3d382	1.4048922
129	0x3f5d9a52	0.865636
130	0x3d4ba387	0.0497165
131	0x3f5a79f8	0.8534236
132	0x3f5a5677	0.85288185
133	0xbce8036c	-0.028321944
134	0x3f4aaf51	0.7917376
135	0x3f2c4b6d	0.6730259
136	0x3fdbbd77	1.7167195
137	0x3f5ca203	0.8618471
138	0x3f27b90a	0.6551672
139	0x3ce11c50	0.02747932
140	0x3fc1280c	1.5090346
141	0x3f4a7291	0.79081064
142	0x3f5f5e9a	0.87253726
143	0x3f2ee638	0.68320036
144	0x3f99184f	1.1960543
145	0x3f33a968	0.7018037
146	0xbe044769	-0.12917866
147	0x3f549943	0.8304636
148	0x3f405082	0.75122845
149	0x3dfd8b36	0.12380068
150	0x3f4d4fdb	0.80199975
151	0x3f5e75cf	0.8689851
152	0x3fbcdad6	1.4754283
153	0x3f5f1926	0.8714775
154	0x3f57d0f6	0.84303224
155	0xbdf57b95	-0.11986462
156	0x3fc2cd49	1.5218898
157	0x3f122fe1	0.5710431
158	0x3f45b1f3	0.77224654
159	0x3f2a56d2	0.6653873
160	0x3fb6c0c3	1.4277576
161	0x3f4e7862	0.8065244
162	0x3d7be30e	0.061495833
163	0x3f4a0e70	0.7892828
164	0x3f6628b1	0.8990584
165	0x3da6631d	0.08124373
166	0x3f22e8da	0.63636553
167	0x3f64e098	0.894052
168	0x3fbe0e89	1.4848186
169	0x3f289806	0.6585697
170	0x3f5b040d	0.85553056
171	0x3e0d9702	0.13827136
172	0x3fbf299f	1.4934577
173	0x3f55206a	0.83252585
174	0x3f3c949f	0.7366428
175	0x3f31860a	0.6934515
176	0x3fab53c2	1.3384936
177	0x3f44e71a	0.76915133
178	0xbdfc5f9a	-0.12322922
179	0x3f4d9ae8	0.80314493
180	0x3f4489b0	0.76772594
181	0x3a1d4825	0.0005999825
182	0x3f28f75f	0.6600246
183	0x3f40b38b	0.7527396
184	0x3fd0c88f	1.6311206
185	0x3f4cc151	0.7998248
186	0x3f28bfaa	0.65917456
187	0x3d55a617	0.05216035
188	0x3fc67f19	1.5507537
189	0x3f423aa3	0.7587072
190	0x3f3caac5	0.73698074
191	0x3f4b9152	0.79518616
192	0x3c7a38db	0.015272344
193	0x3c8ed620	0.017436087
194	0x3c67ac12	0.014140146
195	0x3d021349	0.031756673
196	0x3cb8432c	0.022492968
197	0x3db0ccec	0.08632836
198	0xbe265032	-0.1624153
199	0xbd455814	-0.0481797
200	0xbdfe6cbf	-0.124230854
201	0x3d0e34dd	0.034718383
202	0x3d8a8905	0.06764416
203	0x3dfd1146	0.1235681
204	0xbdaa2cf1	-0.08309353
205	0xbd55e883	-0.052223694
206	0x3da17eec	0.078855366
207	0xbdf3936d	-0.118933536
208	0xbd889886	-0.066697165
209	0xbe063bbd	-0.13108726
210	0xbe075a68	-0.13218081
211	0x3d35f03c	0.04441856
212	0x3d83d730	0.06437528
213	0xbd8fc3a3	-0.070197366
214	0xbdcfb816	-0.101425335
215	0xbd88d33c	-0.06680915
216	0xbdfb4507	-0.12269025
217	0xbd00a9ac	-0.03141181
218	0x3dd11d2f	0.102106445
219	0xbd45e8f7	-0.048317876
220	0x3d82cf12	0.06387152
221	0x3d7c967a	0.061666943
222	0xbdc93b73	-0.09825792
223	0x3d3d3211	0.046190325
224	0x3fa58267	1.2930421
225	0x3f4eac0e	0.80731285
226	0x3e06f84b	0.13180654
227	0x3f2c007e	0.6718825
228	0x3f210f63	0.62914103
229	0xbd8209b6	-0.063495085
230	0x3f3ed6fe	0.745468
231	0x3f1a6141	0.6030465
232	0x3fdb9387	1.7154397
233	0x3f59382d	0.8485134
234	0x3f4fa260	0.8110714
235	0x3d9d7ef4	0.0769023
236	0x3fbd2df2	1.4779646
237	0x3f487ec9	0.7831846
238	0x3f196831	0.5992461
239	0x3f41ba01	0.75674444
240	0x3fa8b27b	1.3179468
241	0x3f370f7c	0.71508
242	0x3d8dd214	0.06924835
243	0x3f47e163	0.7807829
244	0x3f3ae4f8	0.7300563
245	0x3d4f676e	0.050635748
246	0x3f378fbc	0.71703696
247	0x3f383804	0.71960473
248	0x3fd981ad	1.6992699
249	0x3f4d746f	0.8025579
250	0x3f1cb402	0.6121217
251	0xbd3193e8	-0.043353945
252	0x3fbed84b	1.4909757
253	0x3f354b47	0.7081799
254	0x3f56497f	0.83705896
255	0x3f485f3e	0.7827033

hidden2.bias f4 [16]
0	0xbd2c692d	-0.04209249
1	0x4089b4d1	4.3033223
2	0x4087d731	4.2450185
3	0x408b2c35	4.3491464
4	0x40881535	4.2525887
5	0x3c3f9061	0.011692137
6	0x3db399a2	0.087695375
7	0x3d43e9d7	0.04783043
8	0x40895dcb	4.2926993
9	0x4088022f	4.2502666
10	0x408d546d	4.416556
11	0x408c0851	4.376015
12	0x3d315494	0.04329355
13	0xbd3e0e46	-0.04640033
14	0x40882b6e	4.2553015
15	0x4086832c	4.203512

output.weight f4 [1, 16]
0	0xbdbd48b0	-0.0924238
1	0x3f6faa0f	0.93618864
2	0x3f6be4c7	0.9214596
3	0x3f7895df	0.97103685
4	0x3f58ccf5	0.8468774
5	0x3d9243f9	0.07141871
6	0xbd1e9c26	-0.038723134
7	0xbd807104	-0.06271556
8	0x3f594b63	0.84880656
9	0x3f722469	0.9458681
10	0x3f598c1c	0.84979415
11	0x3f6a5796	0.91539896
12	0xbda4a28d	-0.080388166
13	0x3cec717f	0.028862713
14	0x3f6aaa46	0.91666067
15	0x3f735563	0.95052165
