model.ckpt (torch, 5599 bytes, 5 tensors)

hidden1.weight f4 [16, 32]
0.74927163 -1.0953759 1.6493864 3.1626089 1.5178325 1.6459575 -1.0583508 2.7603128
-0.29720223 1.5149736 0.6610455 1.5221075 0.089822195 0.70158714 2.6874926 0.86422807
0.41015 1.8843613 0.02247763 1.2310146 3.5714703 1.2640624 1.5700812 0.2754773
0.1351029 1.9148777 1.9868003 1.4686193 1.8312145 1.565094 0.85054 0.22619122
-0.75232714 -0.8116664 -0.59351 -0.6398789 -0.6834516 -0.690055 -0.72562414 -0.86110103
-0.73198694 -0.7330613 -0.61885697 -0.6126721 -0.7637783 -0.8298106 -0.85178316 -0.7477398
-0.6717758 -0.881494 -0.6582605 -0.92049295 -0.6529267 -0.9188461 -0.7169093 -0.7695185
-0.7714502 -0.90734226 -0.6787885 -0.73246944 -0.6449212 -0.8893527 -0.8835465 -0.14470182
-2.0110176 -2.104946 -1.8844291 -2.0391388 -2.1759288 -2.2016594 -2.0583305 -2.1297648
-2.1590006 -2.1773608 -2.0280292 -2.0614915 -1.8783913 -2.1635182 -1.9920064 -2.119734
-2.121658 -2.0900924 -1.9894943 -1.9641578 -1.9454315 -2.097214 -1.9159244 -2.0805006
-2.121619 -2.120745 -2.0808785 -2.0178583 -1.8751351 -1.8636664 -2.1521723 -2.107716
-0.59410286 -0.6038323 -0.7749076 -0.68569005 -0.6218784 -0.51633614 -0.42498648 -0.44377905
-0.7769335 -0.6440045 -0.5832241 -0.72058475 -0.54135615 -0.45144588 -0.55320907 -0.61235034
-0.68562376 -0.4823447 -0.44717294 -0.5123481 -0.59225905 -0.65659595 -0.48356515 -0.7070159
-0.74462336 -0.723173 -0.576372 -0.6290356 -0.63482344 -0.636214 -0.58557355 -0.5136482
-0.5159648 -0.6407356 -0.54029 -0.466137 -0.4421997 -0.7428576 -0.5693097 -0.43754193
-0.5582009 -0.50243884 -0.5074562 -0.775499 -0.705676 -0.4964249 -0.7708839 -0.6440972
-0.59521306 -0.6721418 -0.6877037 -0.6887237 -0.4660515 -0.5471819 -0.73278964 -0.7189506
-0.63277054 -0.6514445 -0.5846623 -0.5369474 -0.7167653 -0.48423636 -0.7302927 -0.44413114
-0.5832918 -0.60117716 -0.45141947 -0.39555123 -0.43563485 -0.37718257 -0.36780447 -0.6965536
-0.42488888 -0.68142205 -0.50914544 -0.52501017 -0.4820106 -0.66200805 -0.42626065 -0.46989784
-0.52930844 -0.62888706 -0.53353745 -0.39485806 -0.60902786 -0.5118523 -0.5922632 -0.68958956
-0.569197 -0.6480365 -0.43847236 -0.41864032 -0.5962234 -0.68303686 -0.67292285 -0.52257836
-0.3737546 0.4417445 -0.65098304 -0.27853823 -0.800606 -0.39018834 -0.718531 -0.84857726
-0.24776907 -0.23310404 -0.3777556 -0.38705012 -0.4253682 -0.29502225 -0.35445252 -0.46299595
-0.31074777 0.09165463 -0.22747497 -0.23533836 -0.6423269 -0.42360753 0.060795344 -0.58627725
-0.6058373 -0.5272447 -0.40198225 -0.39742112 -0.78888285 -0.25546587 -0.2276104 -0.32944885
-0.22423175 -0.8473932 -0.21582451 -0.5923033 -1.35639 -1.0006018 -0.93326324 -0.74614555
-0.5869676 -0.52269703 -1.0493604 0.10471581 -0.7932601 -0.94916123 -0.7796488 -0.7769453
-0.80524033 -0.3086946 -1.0623647 -0.94512916 -0.80445546 -1.1801997 -0.59641975 -0.9389032
-0.4474235 -1.0680788 -0.5327969 -0.32295507 -0.64794797 -0.7516294 -1.6886927 -1.2664102
00000000: 44d0 3f3f 4735 8cbf 181f d33f 2f68 4a40
00000010: 5648 c23f bcae d23f 0a78 87bf f7a8 3040
00000020: e42a 98be a8ea c13f 473a 293f 6bd4 c23f
00000030: b3f4 b73d 379b 333f e1ff 2b40 0d3e 5d3f
00000040: 2eff d13e c032 f13f 0223 b83c e391 9d3f
00000050: f892 6440 cccc a13f 6cf8 c83f 5c0b 8d3e
00000060: 6a58 0a3e b61a f53f 794f fe3f b8fb bb3f
00000070: 3d65 ea3f 0055 c83f fdbc 593f ac9e 673e
00000080: 8398 40bf 5fc9 4fbf 45f0 17bf 1bcf 23bf
00000090: aff6 2ebf 72a7 30bf 81c2 39bf 1e71 5cbf
000000a0: 7f63 3bbf e8a9 3bbf 696d 1ebf 14d8 1cbf
000000b0: fa86 43bf 786e 54bf 760e 5abf e06b 3fbf
000000c0: 80f9 2bbf 97a9 61bf c383 28bf 6da5 6bbf
000000d0: 3426 27bf 7f39 6bbf 5e87 37bf 2aff 44bf
000000e0: c37d 45bf 9547 68bf 15c5 2dbf 1e83 3bbf
000000f0: 8e19 25bf 9eac 63bf 1a30 62bf b72c 14be
00000100: 83b4 00c0 6fb7 06c0 f934 f1bf 4081 02c0
00000110: 6b42 0bc0 fde7 0cc0 b0bb 03c0 114e 08c0
00000120: 112d 0ac0 e159 0bc0 3bcb 01c0 7aef 03c0
00000130: 206f f0bf 1577 0ac0 11fa febf b9a9 07c0
00000140: 3fc9 07c0 13c4 05c0 c0a7 febf 8669 fbbf
00000150: e603 f9bf c138 06c0 033d f5bf ec26 05c0
00000160: 9bc8 07c0 49ba 07c0 1d2d 05c0 9724 01c0
00000170: 6d04 f0bf 9f8c eebf 31bd 09c0 d2e4 06c0
00000180: 2017 18bf c194 1abf 5860 46bf 6289 2fbf
00000190: 6c33 1fbf 9b2e 04bf d497 d9be 0237 e3be
000001a0: 1de5 46bf 7bdd 24bf 2d4e 15bf 3e78 38bf
000001b0: 5196 0abf ea23 e7be 1c9f 0dbf fec2 1cbf
000001c0: 0a85 2fbf e2f5 f6be daf3 e4be 3f29 03bf
000001d0: 4a9e 17bf ac16 28bf da95 f7be fefe 34bf
000001e0: a39f 3ebf de21 39bf 1e8d 13bf 7a08 21bf
000001f0: ca83 22bf ecde 22bf 26e8 15bf 737e 03bf
00000200: 4516 04bf 4007 24bf 7250 0abf 82a9 eebe
00000210: 0068 e2be ea2b 3ebf 48be 11bf 7f05 e0be
00000220: 41e6 0ebf d59f 00bf a6e8 01bf 1a87 46bf
00000230: 2fa7 34bf 682b febe a658 45bf 8ee3 24bf
00000240: e25f 18bf 7c11 2cbf 5a0d 30bf 3250 30bf
00000250: 4d9e eebe 1d14 0cbf 1a98 3bbf 260d 38bf
00000260: 40fd 21bf 11c5 26bf 6eac 15bf 6375 09bf
00000270: ee7d 37bf d4ed f7be 76f4 3abf 2865 e3be
00000280: 9d52 15bf bfe6 19bf 7420 e7be b185 cabe
00000290: 880b dfbe 131e c1be de50 bcbe 5651 32bf
000002a0: 098b d9be ad71 2ebf 5b57 02bf 1167 06bf
000002b0: 18ca f6be 5c79 29bf d63e dabe 7396 f0be
000002c0: c280 07bf befe 20bf e995 08bf d62a cabe
000002d0: 40e9 1bbf c108 03bf 909e 17bf f188 30bf
000002e0: e5b6 11bf b8e5 25bf 737f e0be 0658 d6be
000002f0: 19a2 18bf 81db 2ebf ac44 2cbf b2c7 05bf
00000300: c35c bfbe 562c e23e d3a6 26bf 909c 8ebe
00000310: 84f4 4cbf c4c6 c7be a6f1 37bf 5c3c 59bf
00000320: 2db7 7dbe d3b2 6ebe 2f69 c1be 6f2b c6be
00000330: dcc9 d9be 280d 97be cd7a b5be ce0d edbe
00000340: 551a 9fbe 6cb5 bb3d 33ef 68be 8afc 70be
00000350: 896f 24bf 16e3 d8be 8a04 793d 4416 16bf
00000360: 2718 1bbf 82f9 06bf 9ed0 cdbe c87a cbbe
00000370: 3af4 49bf 6ccc 82be b312 69be 85ad a8be
00000380: 029d 65be c3ee 58bf 1a01 5dbe 30a1 17bf
00000390: 309e adbf b813 80bf 57ea 6ebf 6503 3fbf
000003a0: 8243 16bf 79cf 05bf 7151 86bf 3e75 d63d
000003b0: 1813 4bbf 3bfc 72bf 1097 47bf e3e5 46bf
000003c0: 3b24 4ebf 380d 9ebe 91fb 87bf fcf3 71bf
000003d0: cbf0 4dbf c910 97bf f7ae 18bf f65b 70bf
000003e0: b114 e5be ceb6 88bf 6165 08bf 5e5a a5be
000003f0: ebdf 25bf c96a 40bf 1527 d8bf bb19 a2bf

hidden1.bias f4 [16]
131.1078 -0.61410993 -2.093158 -0.726515 -0.6953099 -0.6664372 -0.4196848 -0.7775046
-0.7223233 -0.59292096 -0.66055864 -0.6829606 8.573076 -0.6668636 26.59527 -0.30670694
00000000: 991b 0343 4f36 1dbf 4df6 05c0 e3fc 39bf
00000010: d4ff 31bf a19b 2abf ede0 d6be 8b0a 47bf
00000020: 2eea 38bf abc9 17bf 5f1a 29bf 82d6 2ebf
00000030: 522b 0941 93b7 2abf 1dc3 d441 b108 9dbe

hidden2.weight f4 [16, 16]
-0.5781258 -0.16840816 -0.19458771 -0.49578482 -0.67829734 0.2239398 0.054038346 0.16805542
-0.02058068 -0.5445079 -0.069266945 -0.49381402 -0.72381765 -0.83629346 -0.48401052 0.23150426
-0.38360325 -0.20814651 0.118480474 -0.5089277 -0.47308126 0.20016435 -0.108305335 0.22209948
0.026751459 -0.5012338 -0.04440698 -0.5838445 -0.8196179 -0.5590643 -0.78231895 -0.062309504
-0.68287945 -0.22865835 0.13854322 0.11948165 -0.1254246 0.24473804 -0.36149198 -0.12800398
-0.19319469 -0.1318042 -0.1886175 -0.067557395 -0.48655695 0.039047033 -0.6872533 -0.5194085
-0.6038244 0.10316384 0.17998108 -0.35327953 -0.6142063 -0.065707624 -0.02986589 -0.04154688
0.16289747 -0.7554087 -0.22261116 -0.69271064 -0.70847464 -0.70998156 -0.43168992 0.12324417
-2.3259494 -0.7561318 1.8254299 -0.16349223 -0.043002635 0.39917323 -0.53258324 -1.0248768
-0.66748714 0.1977872 0.31277508 -0.070254475 -0.459155 -0.2391622 -0.12475256 -0.16259874
-0.7232211 -0.8317943 2.1678336 0.81651956 0.38139576 0.4865236 -0.32617554 -1.0938843
-0.53238153 0.73961955 0.5768941 0.71000075 -0.20039928 0.37239483 -0.6875697 0.05647346
2.5319877 -0.5736684 1.9337682 0.64561117 0.37434864 0.5476466 -0.30296528 -0.9767729
-0.64036554 0.37495488 0.32951987 0.39493647 2.5712104 0.66877955 -0.6380935 0.15076797
-1.6317545 -0.5461635 1.7865372 0.82894915 0.41772848 0.61101216 -0.51279795 -0.97369987
-0.3676978 0.66952395 0.73565376 0.73441476 -0.41876483 0.3925505 -0.62951386 -0.11224135
-0.82013327 -0.17968899 0.061831504 -0.43693724 -0.4725565 0.1798318 0.10076347 -0.09992111
-0.03821224 -0.3536717 -0.10003078 -0.5305062 -0.58232695 -0.46084028 -0.596647 -0.021870375
-0.078214794 -0.18382642 0.13903722 0.21875513 0.13020968 -0.053168803 -0.17989084 -0.2429128
-0.12293631 -0.073237 0.02368167 0.13597998 -0.0060688853 -0.08666569 -0.08342695 0.03887686
-0.1522004 -0.09609315 -0.026795328 0.0011035502 0.12136173 0.014245659 -0.21224508 -0.0068353713
0.24219888 0.21853143 0.099327475 -0.0902842 -0.186759 -0.08553147 -0.17290553 0.15089911
-0.1922857 -0.71898896 1.9598205 -0.69843173 -0.38910836 -0.06866017 -0.26612192 -0.83090687
-0.39004028 -0.5773394 0.30310246 -0.8385727 -0.08054794 -0.744292 -0.036570363 -0.17908655
-0.2283332 0.20114535 -0.009126544 -0.05977729 -0.16326866 0.06630403 -0.07450667 0.066177666
0.2242119 0.085791886 0.23015183 0.059005916 0.05506763 -0.23391715 -0.11405271 -0.17342222
-0.2347765 -0.022578895 0.032595128 0.1088528 0.0027966201 -0.06822756 0.19647038 0.15333912
0.2111254 -0.032143086 0.19307563 -0.049807698 -0.076746434 0.08858243 -0.05910182 0.09944484
-0.8362887 0.1043044 0.06982508 -0.7607686 -0.6672541 0.20882952 -0.06973714 0.1429801
-0.249203 -0.4105162 0.102985054 -0.41288635 -0.45329556 -0.48571846 -0.44115564 0.21919766
-0.26174873 -0.82844526 2.218401 0.45759946 0.7948326 0.36163452 -0.3464481 -0.7202679
-0.5685384 0.7412942 0.6443686 0.6709663 -0.06842388 0.52458537 -0.5186248 -0.06433968
00000000: 0d00 14bf 3073 2cbe 0042 47be 82d7 fdbe
00000010: e5a4 2dbf 7a50 653e 5057 5d3d b816 2c3e
00000020: d098 a8bc df64 0bbf d4db 8dbd 31d5 fcbe
00000030: 1d4c 39bf 5417 56bf 3ad0 f7be 740f 6d3e
00000040: a567 c4be 5c24 55be e4a5 f23d 1649 02bf
00000050: b537 f2be e2f7 4c3e 30cf ddbd 0c6e 633e
00000060: e025 db3c dc50 00bf 18e4 35bd d576 15bf
00000070: 7bd2 51bf d71e 0fbf 0e46 48bf 4038 7fbd
00000080: 30d1 2ebf 6a25 6abe 46de 0d3e ccb2 f43d
00000090: 4e6f 00be 9c9c 7a3e 7a15 b9be 7a13 03be
000000a0: d4d4 45be aef7 06be f224 41be 885b 8abd
000000b0: fe1d f9be c8ef 1f3d d5ef 2fbf f5f7 04bf
000000c0: 3c94 1abf 9047 d33d f64c 383e 0ee1 b4be
000000d0: a03c 1dbf b891 86bd 50a9 f4bc 102d 2abd
000000e0: 98ce 263e 7762 41bf 2ef4 63be 7c55 31bf
000000f0: 985e 35bf 5ac1 35bf 7606 ddbe 7067 fc3d
00000100: 5bdc 14c0 db91 41bf b0a7 e93f 826a 27be
00000110: 8823 30bd 6f60 cc3e 6057 08bf 2a2f 83bf
00000120: 70e0 2abf ba88 4a3e 0e24 a03e 94e1 8fbd
00000130: 5d16 ebbe f0e6 74be 457e ffbd 4980 26be
00000140: 0525 39bf 79f0 54bf c9bd 0a40 6d07 513f
00000150: 4e46 c33e 9f19 f93e 7b00 a7be 6704 8cbf
00000160: 284a 08bf b557 3d3f 55af 133f 9cc2 353f
00000170: 7835 4dbe 89aa be3e 9104 30bf b750 673d
00000180: 160c 2240 efdb 12bf b785 f73f c646 253f
00000190: a0aa bf3e 9132 0c3f 441e 9bbe ca0d 7abf
000001a0: ffee 23bf 16fa bf3e d4b6 a83e 1d35 ca3e
000001b0: b68e 2440 2335 2b3f 185a 23bf eb62 1a3e
000001c0: 55dd d0bf 5fd1 0bbf 40ad e43f 0336 543f
000001d0: 82e0 d53e 4b6b 1c3f ba46 03bf 6544 79bf
000001e0: e342 bcbe ec65 2b3f ce53 3c3f 9b02 3c3f
000001f0: 5868 d6be 61fc c83e d227 21bf cbde e5bd
00000200: 41f4 51bf 6400 38be 0843 7d3d 3db6 dfbe
00000210: edf2 f1be d425 383e 145d ce3d 70a3 ccbd
00000220: 7084 1cbd 7514 b5be f0dc ccbd 41cf 07bf
00000230: 6113 15bf 42f3 ebbe dcbd 18bf 8029 b3bc
00000240: 142f a0bd fe3c 3cbe c65f 0e3e 5801 603e
00000250: b055 053e 88c7 59bd 4e35 38be 22be 78be
00000260: 08c6 fbbd 48fd 95bd 1000 c23c 563e 0b3e
00000270: 80dd c6bb c87d b1bd c0db aabd 583d 1f3d
00000280: 6cda 1bbe 7ccc c4bd e081 dbbc 00a5 903a
00000290: 808c f83d a066 693c c656 59be 40fb dfbb
000002a0: fc02 783e b4c6 5f3e 346c cb3d ece6 b8bd
000002b0: c03d 3fbe 202b afbd 260e 31be 4c85 1a3e
000002c0: 8be6 44be a90f 38bf 66db fa3f 6ccc 32bf
000002d0: 3639 c7be b49d 8cbd 2241 88be 50b6 54bf
000002e0: 5cb3 c7be 84cc 13bf 3f30 9b3e b3ac 56bf
000002f0: 52f6 a4bd ec89 3ebf ceca 15bd 7762 37be
00000300: 2ed0 69be 0cf9 4d3e 8087 15bc 08d9 74bd
00000310: e62f 27be 68ca 873d f496 98bd 2888 873d
00000320: ce97 653e a8b3 af3d ecac 6b3e 30b0 713d
00000330: 988e 613d fa87 6fbe 7894 e9bd 9895 31be
00000340: 4069 70be 60f7 b8bc 7882 053d 38ee de3d
00000350: 8047 373b e4ba 8bbd 882f 493e ee04 1d3e
00000360: 4231 583e 78a8 03bd 9eb5 453e 2803 4cbd
00000370: 3c2d 9dbd b46a b53d c014 72bd bca9 cb3d
00000380: 0417 56bf 8c9d d53d 7400 8f3d bbc1 42bf
00000390: 2ad1 2abf 68d7 553e 58d2 8ebd 6069 123e
000003a0: 122f 7fbe 2e2f d2be d4e9 d23d d765 d3be
000003b0: 5b16 e8be 17b0 f8be 27df e1be 5a75 603e
000003c0: ee03 86be fd14 54bf 48fa 0d40 7a4a ea3e
000003d0: 267a 4b3f 2928 b93e a561 b1be 7a63 38bf
000003e0: bc8b 11bf 75c5 3d3f 57f5 243f 73c4 2b3f
000003f0: d221 8cbd 3a4b 063f 98c4 04bf 86c4 83bd

hidden2.bias f4 [16]
-0.7580489 -0.47555417 -0.6090742 -0.7671533 10.8174 25.972729 190.10175 18.786879
-0.47321475 0.19251299 -0.04755494 2.5584624 -0.17832428 0.058229893 -0.509519 24.06202
00000000: 7e0f 42bf d67b f3be 49ec 1bbf 2964 44bf
00000010: 1214 2d41 26c8 cf41 0c1a 3e43 874b 9641
00000020: 3449 f2be 2022 453e f8c8 42bd d9bd 2340
00000030: a49a 36be 7882 6e3d d66f 02bf 047f c041

output.weight f4 [1, 16]
0.48051435 0.36778805 0.4028219 0.412342 -2.1975443 -0.6128164 7.7896156 0.13008858
0.5369522 0.06894246 0.086844444 -0.011904869 -0.058023453 -0.08861789 0.55246025 0.34027427
00000000: fa05 f63e b74e bc3e ac3e ce3e 7e1e d33e
00000010: 91a4 0cc0 89e1 1cbf 8844 f940 f135 053e
00000020: b375 093f b431 8d3d 80db b13d a40c 43bc
00000030: 00aa 6dbd 4c7d b5bd 096e 0d3f 6e38 ae3e
