model.ckpt (torch, 5599 bytes, 5 tensors)

hidden1.weight f4 [16, 32]
0.815245 0.91112894 1.0203326 0.97487414 0.9862298 0.9688353 0.9465961 0.8396377
0.94515395 0.7952243 0.8274623 0.90308684 0.84075147 0.84157896 0.9910473 0.99363154
0.8604065 1.0047525 0.86993504 0.9272503 0.98136365 0.80067706 0.78483415 1.0548604
0.9921814 0.8581428 0.88340074 0.87237537 0.8653584 0.9443382 0.23825583 0.22396845
0.81979865 0.8271088 0.93630165 1.0079559 0.8857849 0.7908521 0.89518535 0.6994912
0.7901171 0.7679747 0.71421736 0.8556775 0.7744533 0.8587443 0.89519286 0.8624551
0.8856356 0.9063478 0.82768786 0.96322674 0.83384216 0.8050789 0.8416757 0.85070336
0.8303336 0.7843235 0.849257 0.8214693 0.99758095 0.9900994 0.16361141 0.29011488
-0.054013725 -0.06981948 -0.04581862 0.015952088 0.0550696 -0.064740345 -0.023377925 -0.009025893
-0.116623774 0.035171125 -0.10184943 -0.07171085 0.056790277 -0.012922872 -0.039536163 -0.07818844
-0.02977369 -0.08608994 0.06735597 0.03616584 -0.04997737 0.019084854 -0.038776256 0.042365927
0.05589689 -0.098630816 -0.029812386 -0.06300036 -0.03799472 -0.033737425 0.06559758 -0.070718564
0.039130427 0.011139042 -0.09454408 -0.037310928 -0.04819469 -0.10113895 0.009247903 0.046301663
-0.006504785 -0.067708135 -0.11473364 -0.016106464 0.033707462 -0.07239654 -0.021257484 0.0010713743
-0.01845549 -0.12869477 -0.050193794 -0.033497203 -0.086561434 0.035333976 0.04049488 0.05728148
0.01739892 -0.11367896 -0.015241736 -0.110910065 -0.11916409 -0.051502142 -0.007900874 -0.041245937
-0.06642337 -0.0988853 0.05897445 0.033850547 -0.012421886 -0.019933406 -0.002101155 -0.030804396
-0.08290694 -0.075347975 0.0417628 -0.06585742 -0.055001933 -0.05021595 -0.07028066 0.033991642
0.03533963 0.017677799 -0.070979565 -0.0031202845 -0.087406084 -0.10931252 -0.019410938 -0.0101120975
0.00661467 -0.0549429 0.024012063 -0.037473496 0.009949835 0.0428387 -0.087908074 0.018192701
0.85078144 0.881335 0.9147103 0.9075337 0.8452276 0.8425713 0.98462516 0.7154368
0.89556044 0.7646337 0.86064625 1.0019176 0.73606926 0.801626 0.99540675 0.9157764
0.86494356 1.0269203 0.8163377 0.9158958 1.0369035 0.8958622 0.8962606 1.0319142
0.91252404 0.8711853 0.7544403 0.9302866 1.0176795 1.03735 0.14127313 0.2951482
0.79655546 0.93744016 1.028184 1.021442 0.8571494 0.85903805 0.9237262 0.72483075
0.88898176 0.89756763 0.9135726 0.9677995 0.87842846 0.94130695 0.9253346 0.9258292
0.9627895 0.8663983 0.83896995 0.8753579 1.0578114 0.7669721 0.95953375 0.9195558
0.8969113 0.81024575 0.9272809 0.90565723 1.0432091 0.9622311 0.15424968 0.34814894
-0.06881479 0.044518277 -0.10801832 -0.11399663 -0.057075717 0.024479216 0.015846353 -0.028782435
-0.046931386 0.024442801 0.040498 0.063584566 0.029816683 -0.058851376 -0.11649824 -0.07743923
0.016747503 5.4897086e-05 0.006132203 -0.07104086 -0.0845689 -0.006529144 -0.09607578 -0.059923064
-0.059627466 -0.033349894 -0.060953815 -0.019769236 0.05194941 0.0010846942 -0.08160436 -0.056541048
00000000: e5b3 503f bf3f 693f 429a 823f 5a91 793f
00000010: 8e79 7c3f 9705 783f 1f54 723f 7ff2 563f
00000020: 9cf5 713f d293 4b3f 92d4 533f b330 673f
00000030: 7d3b 573f b871 573f 47b5 7d3f a35e 7e3f
00000040: 9a43 5c3f bb9b 803f 10b4 5e3f 4760 6d3f
00000050: a63a 7b3f 2cf9 4c3f e4ea 483f aa05 873f
00000060: 9aff 7d3f 3faf 5b3f 8d26 623f fe53 5f3f
00000070: 2188 5d3f 26c0 713f 56f9 733e fc57 653e
00000080: 53de 513f 67bd 533f 77b1 6f3f b304 813f
00000090: cdc2 623f 4975 4a3f de2a 653f db11 333f
000000a0: 1d45 4a3f fd99 443f f3d6 363f ae0d 5b3f
000000b0: 9242 463f abd6 5b3f 5c2b 653f dcc9 5c3f
000000c0: 04b9 623f 6906 683f 5ae3 533f 0796 763f
000000d0: ae76 553f a719 4e3f 0f78 573f b2c7 593f
000000e0: be90 543f 6dc9 483f e868 593f d04b 523f
000000f0: 7761 7f3f 2777 7d3f c089 273e f089 943e
00000100: 7f3d 5dbd 84fd 8ebd 4eac 3bbd f4ad 823c
00000110: a990 613d 9696 84bd 1083 bfbc 57e1 13bc
00000120: 72d8 eebd 990f 103d 6f96 d0bd 23dd 92bd
00000130: ec9c 683d 74ba 53bc acf0 21bd 4321 a0bd
00000140: f4e7 f3bc ec4f b0bd edf1 893d a222 143d
00000150: 12b5 4cbd d757 9c3c dad3 1ebd e587 2d3d
00000160: 23f4 643d f4fe c9bd 1b39 f4bc 5506 81bd
00000170: 5aa0 1bbd 4130 0abd 0658 863d e5d4 90bd
00000180: 3a47 203d 8780 363c 54a0 c1bd 58d3 18bd
00000190: cc67 45bd f021 cfbd 8484 173c d0a6 3d3d
000001a0: 1726 d5bb 90aa 8abd 78f9 eabd b4f1 83bc
000001b0: d610 0a3d a344 94bd 2d24 aebc 5b6d 8c3a
000001c0: f82f 97bc 90c8 03be 0298 4dbd 5d34 09bd
000001d0: 1f47 b1bd 5cba 103d f6dd 253d fc9f 6a3d
000001e0: 2e88 8e3c 84d0 e8bd 79b8 79bc d124 e3bd
000001f0: 4d0c f4bd e9f3 52bd ab72 01bc 80f1 28bd
00000200: fa08 88bd 6084 cabd 318f 713d dfa6 0a3d
00000210: 2b85 4bbc 624b a3bc 88b3 09bb 8059 fcbc
00000220: 1dcb a9bd 0a50 9abd 780f 2b3d 41e0 86bd
00000230: b549 61bd 3daf 4dbd 4fef 8fbd d23a 0b3d
00000240: 4ac0 103d 08d1 903c bc5d 91bd b07d 4cbb
00000250: f601 b3bd 3edf dfbd b003 9fbc 36ad 25bc
00000260: e0bf d83b ce0b 61bd f2b4 c43c cf7d 19bd
00000270: a204 233c a277 2f3d 2609 b4bd dc08 953c
00000280: d0cc 593f 2c9f 613f 742a 6a3f 2154 683f
00000290: d660 583f c1b2 573f 6510 7c3f de26 373f
000002a0: 7343 653f 09bf 433f 5053 5c3f d63e 803f
000002b0: 096f 3c3f 5d37 4d3f fad2 7e3f 5270 6a3f
000002c0: f16c 5d3f 2072 833f 82fb 503f 2678 6a3f
000002d0: 41b9 843f 3a57 653f 5671 653f c415 843f
000002e0: 2d9b 693f 0006 5f3f 0023 413f 4327 6e3f
000002f0: 5243 823f e3c7 843f e7a9 103e aa1d 973e
00000300: 0feb 4b3f 14fc 6f3f 899b 833f 9dbe 823f
00000310: 256e 5b3f ebe9 5b3f 5279 6c3f 828e 393f
00000320: 4f94 633f fec6 653f e5df 693f b5c1 773f
00000330: b0e0 603f 7ef9 703f bae2 6c3f 2403 6d3f
00000340: 5f79 763f 47cc 5d3f bcc6 563f 7517 603f
00000350: 5d66 873f 4958 443f 01a4 753f 0268 6b3f
00000360: fb9b 653f 446c 4f3f 4862 6d3f 27d9 673f
00000370: e087 853f c754 763f a1f3 1d3e 9440 b23e
00000380: c5ee 8cbd cc58 363d b538 ddbd 1177 e9bd
00000390: 3ac8 69bd a388 c83c 36d0 813c 24c9 ebbc
000003a0: 203b 40bd 453c c83c 3be1 253d a038 823d
000003b0: 1e42 f43c 240e 71bd a196 eebd 7698 9ebd
000003c0: 0f32 893c 4c41 6638 a6f0 c83b df7d 91bd
000003d0: 7632 adbd 6ef2 d5bb 61c3 c4bd e371 75bd
000003e0: ee3b 74bd e699 08bd b5aa 79bd 18f3 a1bc
000003f0: e8c8 543d 4c2c 8e3a 3020 a7bd 9697 67bd

hidden1.bias f4 [16]
4.934028 4.825344 0.035817325 -0.06471363 -0.032034367 4.7548776 4.9013453 -0.052434195
4.855336 4.8834257 4.877262 4.8910418 -0.054448683 4.7390847 4.8904085 4.6832314
00000000: 8fe3 9d40 3869 9a40 30b5 123d 9488 84bd
00000010: 7836 03bd f527 9840 d2d7 9c40 3dc5 56bd
00000020: ea5e 9b40 0645 9c40 8812 9c40 6a83 9c40
00000030: 9505 5fbd 95a6 9740 3a7e 9c40 08dd 9540

hidden2.weight f4 [16, 16]
0.10878818 0.03514374 -0.0068930215 -0.009039495 -0.08657472 -0.045502022 -0.13224715 -0.12334649
0.011356548 0.015319788 -0.08931971 -0.1311344 -0.033504337 0.06213524 -0.025200844 0.109417304
-0.122463584 0.06744876 -0.10747498 -0.034191556 -0.0956066 -0.0004400183 -0.15290855 0.09987077
0.07649937 -0.056031782 -0.03914705 0.1117019 0.013940934 -0.09493529 -0.006873501 -0.0036343713
-0.070682995 0.11960303 0.060649734 -0.028099248 -0.11904322 -0.052441794 -0.080490425 0.08872988
-0.035344698 0.042270817 -0.108125985 -0.08612423 -0.07142238 -0.08017696 -0.09034529 -0.108829826
1.107032 1.0064124 -0.07139228 -0.02630542 -0.1174329 1.1605357 1.1066861 -0.075288385
1.1293042 1.1298889 1.0949135 0.9982911 -0.009137688 1.1374338 1.1258626 0.93185747
-0.019702842 0.11279972 0.08235915 0.10393027 0.056282535 0.07026621 -0.037898146 -0.09586852
-0.011102196 0.045868743 -0.08973439 -0.08200942 -0.023347378 0.0026678874 0.015931793 -0.05733627
0.931155 1.1581162 -0.036920823 -0.090572074 0.12933879 1.0577506 1.1005762 -0.100178026
0.9029615 1.0050431 1.1364477 1.0253007 -0.073762596 1.180071 1.0149229 0.98304397
0.04944089 -0.0060162 -0.11559189 -0.08073577 0.07236467 0.049840637 -0.1017768 -0.030545922
0.01402589 -0.017667608 0.1231358 -0.13299406 0.05789168 -0.08207293 -0.09863701 -0.071866594
-0.042043332 0.09489171 0.112749666 0.0097442325 -0.100561 -0.1281424 0.068448104 0.10159217
0.07407783 0.0034484465 -0.160991 -0.073878765 -0.103362456 -0.057417147 0.022938794 -0.007412033
0.027919764 -0.05538366 -0.047871787 0.047444344 -0.05554287 0.00019979285 0.009285669 0.117238924
-0.12519053 0.0029047574 0.100871965 -0.025294058 0.12189334 -0.063232794 -0.017515477 0.018864311
0.9930061 0.93461555 -0.11691728 -0.06768273 -0.049738675 1.0851998 0.9190817 -0.05708579
1.130697 1.0474701 1.1499816 0.9949937 0.05119087 1.0463245 0.8897304 0.9091237
0.112658694 0.025338203 -0.029832965 0.01581873 0.13195564 -0.13300508 -0.026009766 -0.076066196
0.0044634235 0.060188614 -0.12184536 -0.05726643 -0.0015271342 0.1049737 -0.03756303 0.03437175
-0.022184722 0.06251506 -0.12798463 0.09911771 0.008136792 0.041766517 -0.0147514 0.0034508228
-0.029375138 -0.03691967 0.0745111 0.06651482 0.06547563 -0.12563191 -0.17160554 0.09777026
-0.086968884 -0.11658746 -0.09166608 -0.038885955 -0.08135527 -0.0016395065 0.12065825 0.13655987
-0.046013795 -0.009175761 0.013681245 0.012601472 0.12734286 0.06792554 -0.10867485 -0.13630168
0.021636121 0.019750768 0.054228723 -0.077638105 -0.030830618 0.13565078 -0.03843855 -0.047438934
-0.13052797 0.10102524 -0.118263505 -0.08532512 -0.00014242702 -0.07786817 -0.015945433 0.030812856
-0.11379939 0.07185195 0.0776861 -0.034764264 -0.091326445 -0.1252714 -0.008086569 0.08233169
0.105877236 0.02172674 0.04933902 -0.083027765 -0.0030407584 0.01116316 -0.11194673 -0.092113346
1.1775658 1.0708098 0.062097993 -0.06913425 -0.09664577 1.0742233 1.0845716 0.02330384
1.0834591 1.1627953 1.1900985 1.1728151 -0.021532398 1.1812732 0.9776565 1.1062666
00000000: 56cc de3d e2f2 0f3d dbde e1bb 641a 14bc
00000010: 164e b1bd 5460 3abd cc6b 07be 169d fcbd
00000020: d110 3a3c d9ff 7a3c 41ed b6bd 1948 06be
00000030: d83b 09bd 8581 7e3d 0072 cebc 2e16 e03d
00000040: 30ce fabd 9322 8a3d d81b dcbd 720c 0cbd
00000050: 65cd c3bd 42b2 e6b9 0f94 1cbe 0c89 cc3d
00000060: b4ab 9c3d 9581 65bd a858 20bd f7c3 e43d
00000070: 8468 643c 6f6d c2bd 1b3b e1bb a22e 6ebb
00000080: 3fc2 90bd 6ff2 f43d db6b 783d 6530 e6bc
00000090: efcc f3bd 35cd 56bd 2ad8 a4bd 03b8 b53d
000000a0: 9ac5 10bd 2a24 2d3d 2871 ddbd e661 b0bd
000000b0: e645 92bd d133 a4bd f406 b9bd 2ce2 debd
000000c0: 39b3 8d3f 1fd2 803f 1e36 92bd 777e d7bc
000000d0: a980 f0bd 6f8c 943f e4a7 8d3f cc30 9abd
000000e0: 0a8d 903f 33a0 903f 2026 8c3f 0190 7f3f
000000f0: 3eb6 15bc 6e97 913f 441c 903f 368e 6e3f
00000100: db67 a1bc 8a03 e73d eaab a83d 65d9 d43d
00000110: 8488 663d bbe7 8f3d 163b 1bbd b756 c4bd
00000120: fce5 35bc dde0 3b3d aac6 b7bd 8ef4 a7bd
00000130: 0043 bfbc b9d7 2e3b 6483 823c 70d9 6abd
00000140: 2d60 6e3f 273d 943f 4a3a 17bd da7d b9bd
00000150: 6371 043e 5f64 873f aedf 8c3f 232a cdbd
00000160: 7c28 673f 41a5 803f 1e77 913f 0e3d 833f
00000170: d810 97bd 910c 973f fee8 813f c5a8 7b3f
00000180: 8882 4a3d 8b23 c5bb 71bb ecbd cc58 a5bd
00000190: ee33 943d b225 4c3d 5b70 d0bd 713b fabc
000001a0: d9cc 653c a9bb 90bc 9f2e fc3d 982f 08be
000001b0: d41f 6d3d da15 a8bd 3302 cabd cb2e 93bd
000001c0: a135 2cbd 9656 c23d 4ce9 e63d 46a6 1f3c
000001d0: edf2 cdbd c337 03be 852e 8c3d 8e0f d03d
000001e0: 1eb6 973d 55ff 613b d3da 24be c04d 97bd
000001f0: b2af d3bd 3e2e 6bbd 23ea bb3c a4e0 f2bb
00000200: fdb7 e43c fad9 62bd 3515 44bd 0055 423d
00000210: ec80 63bd 7c7f 5139 eb22 183c f61a f03d
00000220: f231 00be be5d 3e3b f695 ce3d 7c35 cfbc
00000230: 37a3 f93d 3280 81bd 9e7c 8fbc 5489 9a3c
00000240: a635 7e3f f742 6f3f 5472 efbd 3e9d 8abd
00000250: c8ba 4bbd d4e7 8a3f f048 6b3f cad2 69bd
00000260: aeba 903f 8013 863f 9932 933f e8b7 7e3f
00000270: 85ad 513d f6ed 853f 5fc5 633f 55bc 683f
00000280: 9ab9 e63d 1092 cf3c 4364 f4bc 4896 813c
00000290: 611f 073e 7c32 08be 6f12 d5bc 98c8 9bbd
000002a0: e941 923b 5688 763d 0f8a f9bd 3490 6abd
000002b0: 1f2a c8ba 74fc d63d b1db 19bd 64c9 0c3d
000002c0: bcbc b5bc e507 803d 670e 03be 3afe ca3d
000002d0: 2e50 053c 5e13 2b3d dbaf 71bc 3327 623b
000002e0: 21a4 f0bc 1439 17bd 4799 983d ec38 883d
000002f0: 1618 863d a7a5 00be 5db9 2fbe c63b c83d
00000300: be1c b2bd 68c5 eebd 6dbb bbbd e146 1fbd
00000310: 989d a6bd b6e4 d6ba ac1b f73d 5ad6 0b3e
00000320: f678 3cbd ee55 16bc 4d27 603c 6876 4e3c
00000330: 2b66 023e 8c1c 8b3d eb90 debd ab92 0bbe
00000340: 3c3e b13c 5dcc a13c f01e 5e3d ba00 9fbd
00000350: 7e90 fcbc 0ae8 0a3e be71 1dbd 544f 42bd
00000360: 20a9 05be 52e6 ce3d 2334 f2bd f0be aebd
00000370: 7658 15b9 5979 9fbd ff9f 82bc 3e6b fc3c
00000380: a80f e9bd 1d27 933d e419 9f3d f964 0ebd
00000390: 5c09 bbbd 2547 00be 877d 04bc 849d a83d
000003a0: 2ad6 d83d 47fc b13c b617 4a3d 760a aabd
000003b0: 7647 47bb b0e5 363c 5444 e5bd eca5 bcbd
000003c0: 7aba 963f 4c10 893f 775a 7e3d 4296 8dbd
000003d0: 38ee c5bd 2680 893f 3ed3 8a3f b2e7 be3c
000003e0: caae 8a3f 7ad6 943f 2655 983f ce1e 963f
000003f0: b664 b0bc f633 973f b247 7a3f 259a 8d3f

hidden2.bias f4 [16]
0.11993715 -0.034798987 -0.10308672 4.61855 -0.15987954 4.6850586 0.025232878 -0.032989576
-0.03896137 4.841456 -0.03222904 0.055991534 -0.04778941 -0.07796856 0.028253313 4.630066
00000000: 9ca1 f53d 6289 0ebd 211f d3bd 29cb 9340
00000010: 76b7 23be 00ec 9540 2eb5 ce3c 1420 07bd
00000020: f595 1fbd 35ed 9a40 9902 04bd 6157 653d
00000030: d4be 43bd fbad 9fbd 7e73 e73c 8029 9440

output.weight f4 [1, 16]
-0.07528838 -0.052864034 0.019404162 1.1965444 -0.011245244 1.1373951 -0.086732514 -0.014514478
-0.12943761 1.1641128 -0.10952507 -0.042580623 -0.052578613 0.1029226 -0.0064398884 1.1034216
00000000: cb30 9abd f587 58bd 7af5 9e3c 5e28 993f
00000010: f93d 38bc 2a96 913f d1a0 b1bd 22ce 6dbc
00000020: 4b8b 04be a601 953f ae4e e0bd 0569 2ebd
00000030: ac5c 57bd 16c9 d23d b305 d3bb eb3c 8d3f
