neural network/model.ckpt (torch, 7447 bytes, 3 tensors)

hidden1.weight f4 [42, 32]
2.1453514 -2.4625685 -0.37126106 -2.655915 -1.0857999 1.8794638 0.1447385 2.3288321
1.9925635 7.4691353 2.6932404 -0.19115244 6.0146637 0.7680346 5.292819 -4.1345496
-2.4481604 3.5784252 -4.399678 4.559636 5.1791835 3.7565694 0.0728173 -3.9816604
3.2686439 3.2719653 -1.1019566 6.5587225 -0.5695907 -1.6623199 -3.206271 -6.5970426
-7.2564054 -5.2775254 5.8422456 -3.0065968 -3.6149664 1.4886503 2.6960795 3.8325675
-0.39175248 -1.4376954 -2.894781 -0.36736894 -9.115576 6.251119 1.6427968 -1.6570698
8.069087 -7.080333 0.3454526 -7.243628 5.1519437 7.387577 -6.4215655 12.03591
6.145269 1.1391885 -17.71266 8.844023 3.3182743 -0.005868096 0.40590623 0.054059107
-0.086392544 -0.07786687 0.09377356 0.05765915 -0.010436252 0.060330704 -0.11144084 0.114003524
0.0073765814 -0.047010377 -0.1336423 0.034827515 -0.0900122 0.030796021 -0.07656238 -0.14588693
-0.019917026 0.061507016 -0.09891998 0.04638931 -0.16558638 0.06801422 0.13197105 -0.09123863
0.02516593 -0.09753303 0.018398657 -0.1383708 -0.09222535 0.09905298 -0.102362074 -0.07707704
-0.62858444 6.6463833 6.1607714 -0.34453648 3.5693777 1.8540087 -2.140877 4.524489
-2.9104645 6.871877 4.9221425 -6.0368457 1.6318583 -1.4812955 -7.1377378 1.2045815
-1.5282943 -4.2734847 -2.461115 -3.6894772 -3.6003628 -6.266499 5.22256 2.7997024
3.0354128 -0.039698333 6.862994 3.8350925 -2.7386687 1.2724187 -0.6261027 0.91806525
-1.3050027 -0.1977299 -0.9488082 -1.3160203 -1.2743139 0.023581382 -1.8955045 -1.2137142
-0.4358965 0.33774737 -0.97994465 -0.6144759 -1.3333657 -2.7379785 -0.8266568 -0.29044744
-0.45438525 -0.5210696 -2.5854213 -0.8697742 -0.58198774 -2.1299458 -0.0032972065 -1.4643234
-1.4844036 -2.4394956 -2.3212883 -0.9876222 -0.4892399 0.018325955 -0.2225186 0.21890573
-8.039716 -1.96942 10.255116 -9.80432 -6.4560194 -0.20591061 -4.1524262 0.9700136
-4.3024354 4.80039 -5.7934904 2.6048217 2.2229986 0.5109561 -7.8391924 -9.289455
2.667658 -6.297907 7.944667 2.7952666 0.3167195 -2.0008678 -8.905952 4.7880554
-1.068432 -2.8418126 3.2909598 5.982554 -0.70156324 2.1653128 1.3357583 -1.1285131
-0.9391658 -12.272187 -1.465752 0.48426652 -3.6259792 -0.11171768 -3.3817344 -1.051874
1.1419636 2.0913384 3.4924686 2.507129 3.1216176 -7.583344 -0.9911706 0.06835327
2.7498865 1.252547 -11.458924 -3.2083113 1.4765105 -1.0817633 -2.933305 0.65602225
1.264336 0.92657834 -0.6172769 7.776404 3.0842018 2.3426378 1.616743 -1.0726389
2.0143163 4.7211084 5.0929904 6.0911403 1.4656526 -2.3344502 -2.9770753 -1.3763136
-2.6360314 2.4711788 3.7541163 -0.0501325 2.3297346 0.2210508 0.71637917 1.3975713
3.392722 -1.0666053 -3.003447 1.6872774 -7.6816125 -3.6339629 5.00743 -4.4549203
-3.661192 1.5654703 2.3254504 2.0281007 -3.0265958 2.6958368 0.70070696 -1.1066077
00000000: 704d 0940 b99a 1dc0 ee15 bebe 83fa 29c0
00000010: 7efb 8abf 4592 f03f 5436 143e 960b 1540
00000020: 520c ff3f 2803 ef40 0d5e 2c40 77bd 43be
00000030: 2078 c040 ea9d 443f c65e a940 3b4e 84c0
00000040: a9ae 1cc0 eb04 6540 2aca 8cc0 8ae8 9140
00000050: dfbb a540 a26b 7040 3d21 953d 86d3 7ec0
00000060: 7631 5140 e167 5140 ea0c 8dbf 0ee1 d140
00000070: b2d0 11bf e6c6 d4bf 8b33 4dc0 f91a d3c0
00000080: 7934 e8c0 7de1 a8c0 adf3 ba40 156c 40c0
00000090: 9c5b 67c0 188c be3f 918c 2c40 c948 7540
000000a0: c893 c8be 6706 b8bf 1844 39c0 c817 bcbe
000000b0: 66d9 11c1 2b09 c840 2a47 d23f dd1a d4bf
000000c0: fb1a 0141 1792 e2c0 2adf b03e cdcb e7c0
000000d0: b9dc a440 0867 ec40 777d cdc0 1693 4041
000000e0: 0ba6 c440 eed0 913f 87b3 8dc1 1e81 0d41
000000f0: 9b5e 5440 2849 c0bb f1d2 cf3e 156d 5d3d
00000100: 93ee b0bd aa78 9fbd 5a0c c03d 002c 6c3d
00000110: d0fc 2abc 541d 773d 183b e4bd ae7a e93d
00000120: 40b7 f13b f48d 40bd 87d9 08be 4ca7 0e3d
00000130: 5158 b8bd f047 fc3c bdcc 9cbd 6263 15be
00000140: 0829 a3bc c8ee 7b3d 8f96 cabd b802 3e3d
00000150: 7a8f 29be 0a4b 8b3d 6b23 073e 52db babd
00000160: c828 ce3c 66bf c7bd c8b8 963c 13b1 0dbe
00000170: a5e0 bcbd 4adc ca3d 35a3 d1bd 91da 9dbd
00000180: e9ea 20bf 2caf d440 0a25 c540 1667 b0be
00000190: af70 6440 2850 ed3f 2104 09c0 9dc8 9040
000001a0: 0d45 3ac0 6be6 db40 3182 9d40 d72d c1c0
000001b0: bce0 d03f 179b bdbf 5968 e4c0 ba2f 9a3f
000001c0: 269f c3bf 63c0 88c0 e882 1dc0 6520 6cc0
000001d0: 586c 66c0 2987 c8c0 361f a740 532e 3340
000001e0: 3444 4240 b89a 22bd a69d db40 2872 7540
000001f0: 5946 2fc0 9ede a23f 4448 20bf 5306 6b3f
00000200: 540a a7bf b579 4abe 18e5 72bf 5a73 a8bf
00000210: b81c a3bf be2d c13c e49f f2bf fd5a 9bbf
00000220: d32d dfbe 39ed ac3e a7dd 7abf 4b4e 1dbf
00000230: baab aabf 0a3b 2fc0 c89f 53bf 87b5 94be
00000240: 2fa5 e8be d164 05bf 8b77 25c0 86a9 5ebf
00000250: 26fd 14bf 0851 08c0 f215 58bb f36e bbbf
00000260: f000 bebf b220 1cc0 fd8f 14c0 cfd4 7cbf
00000270: a77d fabe 5020 963c eadb 63be d328 603e
00000280: ada2 00c1 f415 fcbf f514 2441 7fde 1cc1
00000290: b697 cec0 3bda 52be ade0 84c0 d052 783f
000002a0: 8dad 89c0 cb9c 9940 4664 b9c0 66b5 2640
000002b0: 9c45 0e40 05ce 023f aada fac0 9ca1 14c1
000002c0: e9ba 2a40 7488 c9c0 b63a fe40 a6e5 3240
000002d0: 0f29 a23e 380e 00c0 c87e 0ec1 c037 9940
000002e0: 61c2 88bf 42e0 35c0 169f 5240 1571 bf40
000002f0: a699 33bf 7c94 0a40 21fa aa3f 1e73 90bf
00000300: 2b6d 70bf e15a 44c1 c39d bbbf c8f1 f73e
00000310: 0b10 68c0 3dcc e4bd 566e 58c0 cfa3 86bf
00000320: dd2b 923f 7dd8 0540 9b84 5f40 cd74 2040
00000330: 95c8 4740 c1aa f2c0 5bbd 7dbf cdfc 8b3d
00000340: 24fe 2f40 7653 a03f c157 37c1 f954 4dc0
00000350: 4cfe bc3f 3877 8abf 45bb 3bc0 13f1 273f
00000360: c3d5 a13f 3d34 6d3f dc05 1ebf 4dd8 f840
00000370: 9063 4540 c7ed 1540 6ff1 ce3f 3b4c 89bf
00000380: 8fea 0040 5213 9740 c7f9 a240 9fea c240
00000390: 819a bb3f a267 15c0 6788 3ec0 0b2b b0bf
000003a0: bdb4 28c0 cb27 1e40 7143 7040 bc57 4dbd
000003b0: 5f1a 1540 245b 623e a064 373f 9ee3 b23f
000003c0: 5b22 5940 8686 88bf 7a38 40c0 b5f8 d73f
000003d0: c5cf f5c0 d992 68c0 de3c a040 b58e 8ec0
000003e0: f850 6ac0 5561 c83f 2ed4 1440 67cc 0140
000003f0: bfb3 41c0 9788 2c40 8861 333f 52a5 8dbf

hidden1.bias f4 [42]
-4.0679965 -2.8316557 -0.07760236 18.309862 102.16854 2.4016998 -0.8880445 9.339561
50.047134 3.566952 9.311767 13.437315 26.791784 25.184216 2.0857108 14.535654
1.2275262 -3.3134348 -0.13482356 -1.1394279 18.075228 12.405466 4.657798 14.246532
5.287856 35.362072 -0.1403357 26.294847 5.094575 0.09633757 12.205444 -0.74950844
151.13007 -3.5979373 14.242508 3.292489 31.21727 -6.5657983 3.098022 0.006095187
3.8352132 3.2085705
00000000: 072d 82c0 d939 35c0 fced 9ebd 997a 9241
00000010: 4b56 cc42 73b5 1940 e256 63bf d86e 1541
00000020: 4430 4842 f148 6440 fffc 1441 3eff 5641
00000030: 9355 d641 4679 c941 497c 0540 0a92 6841
00000040: 941f 9d3f 510f 54c0 300f 0abe c6d8 91bf
00000050: 119a 9041 ca7c 4641 ae0c 9540 ccf1 6341
00000060: 1e36 a940 c372 0d42 29b4 0fbe d95b d241
00000070: c206 a340 a24c c53d 8049 4341 c9df 3fbf
00000080: 4c21 1743 9b44 66c0 50e1 6341 24b8 5240
00000090: f8bc f941 051b d2c0 fe45 4640 22ba c73b
000000a0: 2274 7540 3859 4d40

output.weight f4 [1, 42]
-10.001564 -10.935047 0.1269586 6.692189 32.033554 23.278313 19.461987 7.674497
49.02317 29.541346 8.669592 9.785001 40.62644 10.328654 -12.205851 33.76228
3.1133363 -9.621333 -0.102676615 -11.222033 8.889602 2.734986 9.588851 7.141968
1.515943 35.15016 7.8322763 9.503263 21.367643 -0.08065407 6.667888 14.253905
39.700985 19.286089 32.414547 24.09966 36.079243 -8.959661 26.08748 0.023242382
-11.928638 -10.015228
00000000: 6806 20c1 f4f5 2ec1 6f01 023e 6a26 d640
00000010: 5c22 0042 fc39 ba41 26b2 9b41 7b95 f540
00000020: ba17 4442 ad54 ec41 a6b6 0a41 5d8f 1c41
00000030: 7981 2242 2b42 2541 2a4b 43c1 930c 0742
00000040: e740 4740 fbf0 19c1 1e48 d2bd 728d 33c1
00000050: cf3b 0e41 030a 2f40 ef6b 1941 008b e440
00000060: 6c0a c23f c499 0c42 02a2 fa40 5e0d 1841
00000070: eff0 aa41 f62d a5bd 575f d540 ff0f 6441
00000080: cfcd 1e42 e949 9a41 7fa8 0142 1bcc c041
00000090: 2551 1042 c55a 0fc1 29b3 d041 cf66 be3c
000000a0: b4db 3ec1 603e 20c1
