neural network/model33.ckpt (torch, 7359 bytes, 7 tensors)

hidden1.weight f4 [16, 32]
0	0x3dcd33e3	0.10019662
1	0x3dbfd4d0	0.09366763
2	0x3df63b88	0.120230734
3	0x3db13ea3	0.08654525
4	0x3e073eec	0.13207597
5	0x3dbff5cb	0.09373053
6	0x3dc97e27	0.09838515
7	0x3dc0179c	0.09379503
8	0x3dbe3551	0.09287513
9	0x3dbe805e	0.09301828
10	0x3e0a573c	0.1350984
11	0x3e0afe90	0.1357367
12	0x3e3992e5	0.18122442
13	0x3e22e73d	0.15908523
14	0x3dbf1139	0.09329457
15	0x3e115520	0.14192629
16	0x3dbdfe56	0.09277026
17	0x3e3f74ba	0.18696871
18	0x3de25167	0.110506825
19	0x3db3304d	0.08749447
20	0x3e09d083	0.13458447
21	0x3dbf2b72	0.093344584
22	0x3df0eb2d	0.11763606
23	0x3e223bf6	0.15843186
24	0x3dda5522	0.10660769
25	0x3e107108	0.14105618
26	0x3dc0e9e2	0.094196096
27	0x3e1580c1	0.14599897
28	0x3e0ad8dc	0.13559288
29	0x3e1a4ca8	0.15068305
30	0xbd3a1197	-0.04542693
31	0xbd41274c	-0.047156617
32	0x3d6b4381	0.057437424
33	0x3d41dd0f	0.04732996
34	0x3c940647	0.0180694
35	0xbc5450da	-0.01295873
36	0x3d033218	0.032030195
37	0x3c2deced	0.01061557
38	0x3d60f7c7	0.0549238
39	0x3d4f672f	0.050635513
40	0x3d42d8bf	0.047569986
41	0x3c07e44f	0.008294179
42	0x3c7e85ac	0.0155348
43	0x3d7c62c4	0.061617628
44	0x3ceb2489	0.028703945
45	0x3d36267e	0.044470303
46	0x3cced255	0.025246779
47	0x3d1b18c4	0.037865415
48	0x3b85c22d	0.0040819854
49	0x3d666338	0.056246966
50	0x3b7453a9	0.003728131
51	0x3d3849c4	0.044992223
52	0x3d1cf92b	0.038323563
53	0x3cfe691c	0.03105598
54	0x3c8de41c	0.017320685
55	0xbc0269c7	-0.00795979
56	0x3d43feb7	0.047850337
57	0x3ca72bfd	0.020406717
58	0x3c27e4b2	0.010247396
59	0x3d2faf1d	0.04289161
60	0x3cdd0b67	0.026982976
61	0x3d437bc1	0.047725443
62	0x3c01c930	0.007921502
63	0x3ce8a16b	0.028397283
64	0x3da66728	0.08125144
65	0x3d786818	0.060646147
66	0x3d673829	0.056450043
67	0x3d3df9c5	0.046380777
68	0x3d8eac28	0.0696643
69	0x3dbff6c7	0.09373241
70	0x3d6c64aa	0.05771319
71	0x3d6d3793	0.057914328
72	0x3d75985a	0.059959747
73	0x3daa6ba6	0.083213136
74	0x3d286971	0.04111618
75	0x3dbed48d	0.093178846
76	0x3d97e269	0.07416231
77	0x3d6c1edb	0.057646614
78	0x3d3a728b	0.045519393
79	0x3d94d4f3	0.07267179
80	0x3dbdffae	0.09277283
81	0x3dc51f81	0.096251495
82	0x3da05222	0.078281656
83	0x3d47ab0d	0.04874711
84	0x3d9eae06	0.07748036
85	0x3d911a58	0.07085103
86	0x3dbff879	0.09373564
87	0x3d6b1e30	0.057401836
88	0x3dcfd45d	0.10147927
89	0x3dbf877c	0.093520135
90	0x3dc0d12d	0.09414897
91	0x3d9b7d83	0.07592299
92	0x3d52386c	0.05132334
93	0x3dc00e8f	0.09377777
94	0x3d5f5f8f	0.05453449
95	0x3caa21f6	0.020768147
96	0xbc844d2e	-0.016150083
97	0xb99791a3	-0.00028909472
98	0xbde71066	-0.11282425
99	0xbb01ce6b	-0.0019806873
100	0xbd15d690	-0.036581576
101	0xbaafd2f3	-0.0013414308
102	0xbd5f6838	-0.05454275
103	0x3aaa0ff1	0.0012974722
104	0xbdc82542	-0.09772731
105	0xbc92cde7	-0.017920448
106	0xbe21d928	-0.15805495
107	0xbd820a2a	-0.06349595
108	0xbdc1a9da	-0.09456225
109	0xbdc2ef12	-0.09518255
110	0xbd77b7ee	-0.060478143
111	0xbda7de61	-0.08196712
112	0xbcfc5c91	-0.030805858
113	0xbd25bf51	-0.040465657
114	0xbd0d3e47	-0.03448322
115	0xbcee0fbd	-0.029060239
116	0x3d603079	0.054733727
117	0x3dc1a171	0.09454621
118	0xbd8d9252	-0.06912674
119	0xbdd11e28	-0.1021083
120	0xbc543129	-0.012951174
121	0x3db24090	0.087037206
122	0xbd3cf10d	-0.04612832
123	0xbd0f1fcd	-0.034942437
124	0xbd9cebde	-0.076621756
125	0xbcd28d5e	-0.025702175
126	0x3dbfc163	0.093630575
127	0x3c9f5bdf	0.019452987
128	0x3dc01a3d	0.093800046
129	0x3da40f66	0.080107495
130	0x3dbfe913	0.09370627
131	0x3d1e848f	0.038700636
132	0x3dbe27c6	0.0928493
133	0x3dbfeee1	0.093717344
134	0x3d885089	0.06655986
135	0x3daa51cb	0.08316382
136	0x3d951970	0.072802424
137	0x3d91b706	0.07114987
138	0x3d957682	0.07297994
139	0x3dc08b08	0.09401518
140	0x3dd9fb69	0.10643656
141	0x3d93e9ab	0.07222303
142	0x3db44c0a	0.08803566
143	0x3dbfe822	0.09370448
144	0x3d958ee6	0.07302646
145	0x3dc85806	0.09782414
146	0x3dc048f5	0.093889154
147	0x3db7b45c	0.08969948
148	0x3d89e6fb	0.06733509
149	0x3d9c42c4	0.07629922
150	0x3dbff0ee	0.093721256
151	0x3db2be75	0.08727733
152	0x3dd254f8	0.10270113
153	0x3dbf804e	0.09350644
154	0x3de1e822	0.11030604
155	0x3da5016c	0.08056912
156	0x3d6d4e4b	0.057935994
157	0x3d9c15a1	0.07621313
158	0xbccc504a	-0.024940629
159	0xbacf2871	-0.0015804899
160	0xbcd113a3	-0.025522059
161	0xbc9b469b	-0.018954566
162	0xbc9c0970	-0.019047469
163	0xbc8e2499	-0.017351435
164	0xbc5f4c9b	-0.013629104
165	0xbbaa34eb	-0.0051942966
166	0xbcc1ba7f	-0.023648499
167	0xbcbf3114	-0.023338832
168	0xbca3665f	-0.019946275
169	0xbc443740	-0.011976063
170	0xbc83b936	-0.016079526
171	0xbcbb4b20	-0.02286297
172	0xbcef85dd	-0.029238636
173	0xbcbb50ac	-0.022865616
174	0xbca7129c	-0.020394616
175	0xbcba05c2	-0.022707824
176	0xbc880b0f	-0.016606836
177	0xbcc2821f	-0.023743687
178	0xbcd0aefc	-0.025474064
179	0xbc6e8f87	-0.014560587
180	0xbc315581	-0.010823608
181	0xbb5bf1a7	-0.0033560784
182	0xbc98edd5	-0.018668095
183	0xbcf1da0f	-0.029522924
184	0xbcba2e81	-0.022727253
185	0xbc80bb32	-0.015714262
186	0xbc777e8c	-0.015105855
187	0xbc0fc169	-0.00877414
188	0xbbee406e	-0.007270864
189	0xbc8a4ade	-0.016881403
190	0xbbb216a9	-0.00543483
191	0x3b5b5dc3	0.0033472634
192	0x3d92afdb	0.07162448
193	0x3ccd2c18	0.02504544
194	0x3cda4e20	0.026648581
195	0x3a675c4d	0.00088257046
196	0x3ce6bb1c	0.028165393
197	0x3d4f7e7c	0.050657734
198	0x3d3f8ba1	0.04676402
199	0x3d0bc65d	0.03412472
200	0x3d071813	0.032981943
201	0x3d67b140	0.056565523
202	0x3bd45f9b	0.0064811236
203	0x3d8292e7	0.06375676
204	0x3d822bda	0.0635602
205	0x3d333546	0.043751977
206	0x3d83a641	0.06428195
207	0x3d3cd3f0	0.046100557
208	0x3cc688cc	0.024235152
209	0x3d4e7b72	0.050410695
210	0x3d4d6abc	0.050150618
211	0x3c81ba95	0.01583604
212	0x3d4ae1ee	0.04953187
213	0x3d8da94c	0.069170564
214	0x3d662d25	0.056195397
215	0x3d0f8a85	0.035044212
216	0x3d7cd279	0.06172416
217	0x3d7f83f0	0.062381685
218	0x3d84a08a	0.06475933
219	0x3d508981	0.050912384
220	0x3cff2a59	0.031148123
221	0x3d4d79f2	0.050165124
222	0xbbf4676e	-0.007458619
223	0x3d0551ad	0.032548595
224	0x3e39f3b4	0.18159372
225	0x3e2898a4	0.16464478
226	0x3e214919	0.15750541
227	0x3db913ac	0.09036955
228	0x3e0d3e5e	0.13793322
229	0x3e044262	0.12915948
230	0x3e26c9fc	0.16287988
231	0x3e26d375	0.16291602
232	0x3dd4f7b8	0.10398811
233	0x3de89e73	0.11358347
234	0x3e0a7c50	0.13523984
235	0x3e0695b4	0.13143045
236	0x3e3b6b8a	0.18302742
237	0x3e216666	0.15761718
238	0x3e1d811f	0.15381287
239	0x3e05e8c7	0.13077079
240	0x3e28c172	0.16480044
241	0x3e3d4ba8	0.18485892
242	0x3e12ab73	0.14323215
243	0x3dbf0fbb	0.09329172
244	0x3dc01144	0.09378293
245	0x3dbf2e40	0.09334993
246	0x3e0aef92	0.13567951
247	0x3e0a67eb	0.13516204
248	0x3e3f362e	0.18673012
249	0x3e26bcc9	0.16282953
250	0x3e302df8	0.17205036
251	0x3dc07ed8	0.093991935
252	0x3ded5af9	0.11589617
253	0x3e317b14	0.17332107
254	0xbe024639	-0.127221
255	0xbced09bc	-0.028935306

hidden1.bias f4 [16]
0	0x3f821770	1.0163403
1	0x3f920af1	1.1409589
2	0x3fabef55	1.3432413
3	0x3f842ce7	1.0326203
4	0x3f663d02	0.8993684
5	0x3ff6579a	1.9245484
6	0x3f931a39	1.1492378
7	0x3f7a71ad	0.97829705
8	0xbb8849fe	-0.004159211
9	0x3f7c2b4b	0.9850356
10	0x3fd71616	1.6803615
11	0x3fad4fa5	1.353993
12	0x3fbf7a31	1.4959165
13	0x3fbffc0d	1.4998795
14	0x3fd5fad2	1.6717169
15	0x3f910790	1.1330433

hidden2.weight f4 [16, 16]
0	0x3e931187	0.2872431
1	0x3f155123	0.5832693
2	0x3eb967ef	0.36212108
3	0x3fbff9a2	1.4998057
4	0x3eae61d5	0.34059015
5	0x40c00261	6.0002904
6	0x3f202677	0.6255869
7	0x3e9a5582	0.30143362
8	0xbc040734	-0.008058358
9	0x3ea05c62	0.31320482
10	0x40a3aff8	5.1152306
11	0x3e75a7ac	0.23989743
12	0x405f43e7	3.4885194
13	0x40c00201	6.0002446
14	0x40c00275	6.0003
15	0x3ebeec10	0.37289476
16	0x3e97c28d	0.29640618
17	0x3f0e7003	0.55639666
18	0x3ebbf05f	0.36706826
19	0x3fbff9aa	1.4998066
20	0x3eba4f62	0.3638869
21	0x40c0026a	6.0002947
22	0x3f1b5699	0.6067901
23	0x3eb43c51	0.35202268
24	0x3d09a24c	0.033602044
25	0x3eba0283	0.3633004
26	0x40a69188	5.205265
27	0x3ebef148	0.37293458
28	0x405f554b	3.4895809
29	0x40c00209	6.0002484
30	0x40c0027c	6.0003033
31	0x3ecb5c42	0.39718825
32	0x3e4a2bf0	0.19743323
33	0x3f036d42	0.5133859
34	0x3e88c769	0.26714638
35	0x3fbff96a	1.499799
36	0x3ea3f38b	0.32021746
37	0x40c00250	6.0002823
38	0x3f15b25d	0.58475286
39	0x3e74e371	0.23914887
40	0x3cf9d7ca	0.030498404
41	0x3eb7d8db	0.35907635
42	0x40a3102b	5.0957236
43	0x3e3fa3de	0.18714854
44	0x405eec9d	3.4831917
45	0x40c001f6	6.0002394
46	0x40c0026a	6.0002947
47	0x3ebbf561	0.36710647
48	0x3eadeb4b	0.33968577
49	0x3f0be4cd	0.54646
50	0x3eba0542	0.36332136
51	0x3fbff9ab	1.4998068
52	0x3eafe0d6	0.34351224
53	0x40c00267	6.0002933
54	0x3f15a2d5	0.58451587
55	0x3e93cdf6	0.28868073
56	0xbc828b7d	-0.015935654
57	0x3ea0da8b	0.31416735
58	0x40a40f06	5.126834
59	0x3eaafa31	0.33394006
60	0x405f5dde	3.4901042
61	0x40c00207	6.0002475
62	0x40c0027b	6.000303
63	0x3ebe0d86	0.37119693
64	0x3e852815	0.26007143
65	0x3f04bd3e	0.5185126
66	0x3e9517b8	0.29119658
67	0x3fbff97d	1.4998013
68	0x3eaf298b	0.34211382
69	0x40c00259	6.0002866
70	0x3f1b6c0e	0.60711753
71	0x3e79b392	0.24384907
72	0x3c726a5e	0.014795868
73	0x3eb858d0	0.3600526
74	0x40a458aa	5.1358232
75	0x3e753849	0.23947252
76	0x405f04c3	3.4846656
77	0x40c001fb	6.0002418
78	0x40c0026a	6.0002947
79	0x3ec2a6c2	0.3801785
80	0x3e87d71c	0.26531303
81	0x3f0bf462	0.54669774
82	0x3e811b01	0.25215915
83	0x3fbff985	1.4998022
84	0x3ea7d891	0.32782415
85	0x40c00255	6.0002847
86	0x3f117c27	0.56830066
87	0x3e47be71	0.19506241
88	0x399e10af	0.0003014854
89	0x3eaff13e	0.3436374
90	0x40a3103d	5.095732
91	0x3e4579e2	0.19284776
92	0x405f1373	3.485562
93	0x40c001f9	6.000241
94	0x40c00267	6.0002933
95	0x3ebcde73	0.36888465
96	0x3eaf759a	0.3426941
97	0x3f18013e	0.59376895
98	0x3ebab513	0.36466274
99	0x3fbff9c5	1.4998099
100	0x3ebb7405	0.36611953
101	0x40c0026c	6.0002956
102	0x3f20ac96	0.62763345
103	0x3e9fc39b	0.31203923
104	0x3c024e76	0.007953277
105	0x3ebb20ac	0.36548364
106	0x40a5047d	5.156798
107	0x3eaa6044	0.3327657
108	0x405f86ea	3.4926095
109	0x40c0020a	6.000249
110	0x40c00286	6.000308
111	0x3ebeb147	0.37244627
112	0x3e8f1e08	0.279526
113	0x3f0510b5	0.5197862
114	0x3e8771e5	0.26454082
115	0x3fbff985	1.4998022
116	0x3eb33c21	0.35006812
117	0x40c00254	6.000284
118	0x3f196334	0.59916997
119	0x3e7954db	0.24348776
120	0x3d0a129b	0.03370915
121	0x3eb219f5	0.3478543
122	0x40a27f40	5.0780334
123	0x3e6cb3f0	0.23115516
124	0x405f079f	3.4848402
125	0x40c001f9	6.000241
126	0x40c00268	6.0002937
127	0x3ebc65ba	0.3679636
128	0x3e842c24	0.25814927
129	0x3f054ff2	0.5207511
130	0x3e9f08ce	0.31061405
131	0x3fbff976	1.4998004
132	0x3eb85efd	0.3600997
133	0x40c00258	6.000286
134	0x3f15b2ae	0.5847577
135	0x3e785c49	0.24253954
136	0x3bffd06c	0.0078068282
137	0x3eae358a	0.34025222
138	0x40a365f2	5.1061945
139	0x3e9a9c37	0.30197307
140	0x405efd1a	3.484198
141	0x40c001fb	6.0002418
142	0x40c0026a	6.0002947
143	0x3ebf5c99	0.37375334
144	0x3e86ee4c	0.2635368
145	0x3f07dcab	0.5307109
146	0x3e8c51c4	0.27406132
147	0x3fbff986	1.4998024
148	0x3eb94769	0.36187294
149	0x40c00255	6.0002847
150	0x3f10da29	0.56582886
151	0x3e7f3e62	0.24926141
152	0xb9b74f63	-0.00034963628
153	0x3eb05a6c	0.34443986
154	0x40a2f714	5.092661
155	0x3e6e6a38	0.23282707
156	0x405f165a	3.4857392
157	0x40c001f9	6.000241
158	0x40c00268	6.0002937
159	0x3ebca373	0.36843452
160	0x3e88ff45	0.26757255
161	0x3f082a86	0.53189886
162	0x3e88e319	0.26735762
163	0x3fbff985	1.4998022
164	0x3eae98f0	0.34101057
165	0x40c00256	6.000285
166	0x3f12aa08	0.572907
167	0x3e7d0fea	0.24713102
168	0xbc290430	-0.01031594
169	0x3eaa4c23	0.33261213
170	0x40a3e165	5.121264
171	0x3e28f2e5	0.16498907
172	0x405f15b6	3.4857001
173	0x40c001f8	6.0002403
174	0x40c00267	6.0002933
175	0x3ebd00c3	0.36914644
176	0x3dd91d74	0.10601321
177	0x3dcb2ed1	0.09921039
178	0x3df45120	0.11929536
179	0xbf120f51	-0.5705462
180	0x3de68157	0.11255138
181	0xc01bac79	-2.432402
182	0x3e0d2d35	0.13786776
183	0x3dda217b	0.10650917
184	0xbcf7ab3c	-0.030233018
185	0x3dc57723	0.09641864
186	0xc0072b71	-2.1120265
187	0x3dfc6f79	0.12325949
188	0xc0022f56	-2.0341392
189	0xc013e931	-2.3111079
190	0xc00cdc2c	-2.2009382
191	0x3e074bd0	0.13212514
192	0x3c7b371e	0.015332965
193	0xbe07bbe2	-0.13255265
194	0xbc88e74a	-0.01671185
195	0xbbd5e7d6	-0.006527881
196	0x3ccb9c49	0.024854796
197	0xbeb4e691	-0.35332158
198	0xbe351e46	-0.1768733
199	0x3d918531	0.07105482
200	0x3cafe848	0.021473065
201	0xba152360	-0.000568917
202	0xbedda44d	-0.43289414
203	0x3d2a8554	0.041631058
204	0xbf2a88ee	-0.6661519
205	0xbf36ab76	-0.7135538
206	0xbede3734	-0.43401492
207	0xbd2155c1	-0.039388422
208	0x3eb451b7	0.35218593
209	0x3f234ad2	0.6378604
210	0x3ecdb260	0.40175152
211	0x3fbff9ca	1.4998105
212	0x3eb09054	0.34485114
213	0x40c0026a	6.0002947
214	0x3f25b5ab	0.6473033
215	0x3eb1ed4d	0.3475136
216	0xbc7edab6	-0.015555074
217	0x3ebae61b	0.36503682
218	0x40a78b63	5.235765
219	0x3ef4c0fe	0.4780349
220	0x405f80e7	3.4922426
221	0x40c0020e	6.000251
222	0x40c0028b	6.0003104
223	0x3ede6b2f	0.4344115
224	0xbbdb27f2	-0.0066881115
225	0x3d049cb4	0.032376006
226	0xbcc76272	-0.024338935
227	0xbbb15d6d	-0.0054127485
228	0x3b9eb6e8	0.0048435815
229	0xbca9745b	-0.020685365
230	0xbd0ed68f	-0.034872588
231	0xbcc08b6a	-0.023503978
232	0x3c414e56	0.011798462
233	0xbc878a48	-0.01654543
234	0x3c3adc9c	0.011405136
235	0xbcb0c810	-0.021579772
236	0x3cbcf5a0	0.023066342
237	0xbb28ddeb	-0.002576704
238	0x3c0b4644	0.008500639
239	0xbd11dd84	-0.035611644
240	0x3eb42e75	0.35191694
241	0x3f0f7b56	0.5604757
242	0x3ebaca3c	0.36482418
243	0x3fbff9c9	1.4998103
244	0x3eb28c39	0.34872606
245	0x40c0026a	6.0002947
246	0x3f1f36f8	0.6219325
247	0x3eb128b7	0.34601375
248	0xbd045a3b	-0.032312613
249	0x3ebb3855	0.36566415
250	0x40a5de39	5.183377
251	0x3eb0911d	0.34485713
252	0x405f8a3b	3.492812
253	0x40c0020e	6.000251
254	0x40c0028c	6.000311
255	0x3ed2e462	0.41189867

hidden2.bias f4 [16]
0	0x3f841ba1	1.0320932
1	0x3f92b42c	1.1461234
2	0x3f7c3b3f	0.985279
3	0x3f815175	1.0102984
4	0x3f88a856	1.0676372
5	0x3f8499ba	1.0359414
6	0x3f9079e2	1.1287196
7	0x3f88c9f7	1.0686635
8	0x3f880a79	1.0628196
9	0x3f777de1	0.9667645
10	0x3f7b47e9	0.981566
11	0x3cb917e9	0.022594409
12	0xbe3a60d1	-0.18200995
13	0x3f9aaec7	1.2084588
14	0x3beba828	0.0071916766
15	0x3f8c9760	1.0983696

hidden3.weight f4 [16, 16]
0	0x3fa6262c	1.2980399
1	0x3fbffc89	1.4998943
2	0x3fbdbe63	1.4823726
3	0x3f9e4774	1.2365556
4	0x3faf1fb7	1.3681554
5	0x3fbfff5c	1.4999804
6	0x3f9c5a0d	1.2214981
7	0x3fac6319	1.3467742
8	0x3fb612fb	1.4224542
9	0x3fa98c0e	1.3245866
10	0x3fbfff38	1.4999762
11	0xbf134861	-0.57532316
12	0x3f27a390	0.6548395
13	0x3fbe1b77	1.4852132
14	0x3ca51734	0.020152666
15	0x3fbffc39	1.4998847
16	0x3fafa597	1.3722409
17	0x3f77242a	0.96539557
18	0x3fbfff63	1.4999813
19	0x3f87e17c	1.0615687
20	0x3fb341bc	1.4004436
21	0x3fbfff5c	1.4999804
22	0x3f8dad7f	1.1068572
23	0x3faecbbd	1.3655926
24	0x3f9e727c	1.2378688
25	0x3fb79781	1.434311
26	0x3fbfff38	1.4999762
27	0xbf1f2e7d	-0.6218031
28	0x3f22fdbf	0.63668436
29	0x3fa42f90	1.2827015
30	0xbca18bc0	-0.019719958
31	0x3f6de3d6	0.92925775
32	0x3cc2001e	0.023681697
33	0x3be9b13c	0.0071317237
34	0x3c6b5788	0.014364131
35	0x3aeade10	0.0017918963
36	0xbd080b93	-0.033214163
37	0x3cb70f7a	0.022346247
38	0xbca43d9c	-0.020048909
39	0xbb5221b2	-0.003206354
40	0xbbc2e1c2	-0.0059473226
41	0xbd0aea67	-0.03391495
42	0xbd064315	-0.03277882
43	0x3cb9adac	0.022665821
44	0x3c6f3e48	0.014602251
45	0xbcf64ec4	-0.030066855
46	0x3d01f448	0.031727105
47	0xbc8486b7	-0.016177518
48	0xbc233ee9	-0.009963729
49	0xbd13420a	-0.03595165
50	0xbce8b410	-0.028406173
51	0xbc85b549	-0.016321795
52	0xbc3fa9db	-0.011698212
53	0xbbbffd12	-0.0058590258
54	0x3ce79a60	0.028271854
55	0x3cf1b5fe	0.029505726
56	0x3b982bc9	0.0046438915
57	0xbc1f9d05	-0.009742026
58	0x3c070b27	0.008242405
59	0x3bf7b41c	0.0075593125
60	0x3c9d79fc	0.019223206
61	0xbcb3f467	-0.021967126
62	0xbc4aedb2	-0.012385773
63	0x3d0a8bb3	0.033824634
64	0xbd119adb	-0.035548072
65	0xbb97f6b7	-0.004637565
66	0xbc6d99aa	-0.014501968
67	0xbcb01810	-0.021495849
68	0x3b4cd84a	0.0031256848
69	0xbba9037b	-0.0051578856
70	0xbd142f6e	-0.036178045
71	0xbb54fd6a	-0.003249968
72	0x3b931219	0.0044882414
73	0x3c7906a8	0.015199341
74	0xbd04ef6b	-0.03245489
75	0x3ce432b0	0.027856201
76	0xbcbb6580	-0.022875547
77	0x3c703eac	0.01466338
78	0x3ba6f79c	0.0050954353
79	0x3cb3fa8b	0.021970054
80	0x3fb11d98	1.3837156
81	0x3f89f1e8	1.0776949
82	0x3fbfff63	1.4999813
83	0x3f9783db	1.1837114
84	0x3f9ccb79	1.2249595
85	0x3fb5674e	1.4172151
86	0x3f94f5a7	1.1637467
87	0x3fba2d4b	1.4545072
88	0x3f9cc153	1.2246498
89	0x3fad29f3	1.3528427
90	0x3fbfff38	1.4999762
91	0xbf188b1d	-0.5958727
92	0x3f292df5	0.6608575
93	0x3fbe1c8c	1.4852462
94	0x3cf293fa	0.029611576
95	0x3f92c8ac	1.146749
96	0xbc55b8be	-0.013044534
97	0xbcd60da4	-0.026129551
98	0xbbf428a4	-0.007451134
99	0xbab90b62	-0.0014117772
100	0x3cce5f1e	0.02519184
101	0x3c926131	0.01786861
102	0x3b0bda89	0.0021339974
103	0xbd1172e0	-0.035509944
104	0x3c179838	0.0092526
105	0x3cc0261e	0.023455676
106	0x3bb2b14a	0.0054532634
107	0x3c11765e	0.008878319
108	0x3d04c147	0.032410886
109	0xbc8590d2	-0.016304407
110	0x3d0ddc65	0.034634013
111	0x3c90d579	0.017679917
112	0x3fa4aad0	1.2864628
113	0x3f908e08	1.1293344
114	0x3fbfff63	1.4999813
115	0x3f84fece	1.039026
116	0x3fa93aca	1.3221066
117	0x3fb669f1	1.4251081
118	0x3f93189f	1.1491889
119	0x3f9eea7f	1.2415313
120	0x3f98d45e	1.1939809
121	0x3fab4d60	1.3382988
122	0x3fbfff38	1.4999762
123	0xbf1aaaf6	-0.60417116
124	0x3f1d359f	0.61409944
125	0x3f66289f	0.8990573
126	0x3ba44665	0.0050132745
127	0x3f80a7c7	1.0051202
128	0xbc2097e2	-0.009801837
129	0x3bff303a	0.0077877315
130	0x3c6eed34	0.014582921
131	0xbcbd560d	-0.023112321
132	0x3c16958f	0.009190931
133	0xbcf65a36	-0.030072313
134	0x3ccc9d56	0.024977367
135	0xbbedc4e4	-0.007256137
136	0x3c57f668	0.013181306
137	0xbcb7c7c5	-0.022434125
138	0x3d109147	0.035294797
139	0x3c307e7f	0.0107723465
140	0xbcbe2de8	-0.02321525
141	0xbcf02e2a	-0.029318888
142	0xbaff7570	-0.0019489955
143	0x3c04e061	0.008110137
144	0xbbd46132	-0.006481313
145	0xbc82f484	-0.015985735
146	0xbbe03912	-0.006842741
147	0xbcbca802	-0.023029331
148	0x3cfadf14	0.03062395
149	0x3c3e2a34	0.011606742
150	0x3cefed40	0.029287934
151	0xbcaad1d0	-0.020852
152	0xbab76c48	-0.0013994062
153	0xbb2d60f8	-0.0026455503
154	0x3c8c4740	0.017123818
155	0xbc0722f8	-0.008248083
156	0x3d08cca9	0.033398304
157	0xbcc399be	-0.02387702
158	0xbb87ede8	-0.0041482337
159	0x3bb21800	0.00543499
160	0x3c30d988	0.010794051
161	0x3d2fb071	0.042892877
162	0xbdd46bc2	-0.10372116
163	0x3d1b5222	0.037920125
164	0xbd7c5e26	-0.061613224
165	0xbd5d649b	-0.054051023
166	0x3da667a6	0.08125238
167	0xbd43f571	-0.047841493
168	0xbd7d04bf	-0.061772104
169	0xbd40741e	-0.046985738
170	0xbd6ce419	-0.05783472
171	0x3f2214a4	0.63312745
172	0xbf09fff6	-0.5390619
173	0x3dc00244	0.09375432
174	0x3d101853	0.035179447
175	0x3db1b8fe	0.086778626
176	0x3f931806	1.1491706
177	0x3f56e57f	0.83943933
178	0x3fbf8e5e	1.4965322
179	0x3f85ac36	1.044318
180	0x3f91de3b	1.1395944
181	0x3fbfff5c	1.4999804
182	0x3f837c16	1.0272243
183	0x3f9c29eb	1.2200292
184	0x3f8bfac7	1.0935906
185	0x3fa0d071	1.2563611
186	0x3fbfff38	1.4999762
187	0xbf1a3763	-0.60240763
188	0x3f2986f2	0.66221535
189	0x3f4910b1	0.78541094
190	0x3ca3d4f8	0.019999012
191	0x3f54ea75	0.83170253
192	0x3fa930b9	1.3217994
193	0x3f82d841	1.0222245
194	0x3fbfff63	1.4999813
195	0x3f95941b	1.1685823
196	0x3fa85a7a	1.3152611
197	0x3fbfff5c	1.4999804
198	0x3f81be4a	1.0136197
199	0x3fa8c7af	1.3185939
200	0x3f9d422b	1.2285818
201	0x3fa3097a	1.2737267
202	0x3fbfff38	1.4999762
203	0xbf15d32f	-0.58525366
204	0x3f0713e3	0.5276472
205	0x3f97803e	1.1836011
206	0x3ce1f3d8	0.027582094
207	0x3f818ada	1.0120499
208	0xbc25b512	-0.010113971
209	0xbc7fa9fe	-0.015604494
210	0xbb194fab	-0.0023393433
211	0xbca7774d	-0.02044263
212	0x3bb5acdf	0.0055442895
213	0xbc6e2bee	-0.014536841
214	0xbcb78631	-0.022402855
215	0xbca9ad04	-0.020712383
216	0x3c9311df	0.017952858
217	0x3d0d7d9a	0.03454361
218	0x3caf5937	0.021404846
219	0xbc91f58e	-0.017817285
220	0xbd0cd9d4	-0.034387425
221	0x3bf4dc4a	0.0074725496
222	0x3a28cb5e	0.00064389955
223	0x3b7ae186	0.0038281395
224	0xbbfcad68	-0.0077111013
225	0xbd13dda1	-0.036100034
226	0x3af9f910	0.0019071419
227	0x3c153990	0.009107962
228	0xbcbeb4fc	-0.02327966
229	0x3ca68dc6	0.020331275
230	0xbcdc19ea	-0.026867826
231	0x3aa340a8	0.0012455182
232	0x3d0a4732	0.033759303
233	0xbcb2d11a	-0.021828223
234	0x3bfed068	0.007776309
235	0xbc724440	-0.01478678
236	0x3c86aa3a	0.016438592
237	0xbd125da2	-0.035733826
238	0xbcbb2ea0	-0.022849381
239	0x3b48c992	0.0030637723
240	0x3fa3f22a	1.2808278
241	0x3f685d39	0.90767246
242	0x3fbfff63	1.4999813
243	0x3f83adca	1.0287411
244	0x3fa84c1b	1.3148226
245	0x3fb5a425	1.4190718
246	0x3f7e0e85	0.99240905
247	0x3fb14828	1.3850145
248	0x3f8fc400	1.123169
249	0x3fad29f0	1.3528423
250	0x3fbfff38	1.4999762
251	0xbf1d1532	-0.61360466
252	0x3efb52da	0.49086648
253	0x3f63012d	0.8867367
254	0x3d0ea128	0.03482166
255	0x3f723c01	0.9462281

hidden3.bias f4 [16]
0	0x3f8f77a0	1.1208382
1	0x3f86ab94	1.0521111
2	0x3b1b983a	0.0023741857
3	0xbd033406	-0.032032035
4	0x3cf4c6ae	0.029879894
5	0x3f840728	1.0314684
6	0xbce026e8	-0.027362302
7	0x3f84ef9f	1.0385627
8	0x3c1f0e37	0.009707979
9	0xbcd2a8d0	-0.025715262
10	0x3e944eeb	0.2896646
11	0x3f86359a	1.0485108
12	0x3f8c2f5e	1.0951955
13	0xbc4cf864	-0.012510393
14	0xbd00b893	-0.031426024
15	0x3f855762	1.0417292

output.weight f4 [1, 16]
0	0x3fbffe66	1.4999511
1	0x3fbffe86	1.4999549
2	0xbb20f7d5	-0.0024561782
3	0x3ceb1de0	0.028700769
4	0xbce872e8	-0.028375104
5	0x3fbffe73	1.4999527
6	0xbd0bfd5b	-0.034177165
7	0x3fbffe8b	1.4999555
8	0xbc79001c	-0.01519778
9	0xbcc83edc	-0.024444036
10	0xbfc00265	-1.5000731
11	0x3f9fb661	1.2477533
12	0x3fbffe82	1.4999545
13	0xbcebf37a	-0.028802622
14	0x3c2ae2e9	0.010430076
15	0x3fbffe98	1.4999571
