neural network/model.ckpt (torch, 5035 bytes, 5 tensors)

hidden1.weight f4 [16, 32]
0	0xc0c299c8	-6.081272
1	0xc089bbf5	-4.304194
2	0xc070ced9	-3.762625
3	0x4067c259	3.621237
4	0xc0c820c6	-6.2540007
5	0xc0da4b62	-6.821702
6	0xc0dae600	-6.840576
7	0x402925a7	2.642923
8	0x40282a62	2.6275868
9	0xc11451b5	-9.269948
10	0xc0304063	-2.7539299
11	0x4046fef5	3.1093113
12	0x40005ef4	2.0057955
13	0x3f9ce3e2	1.2257044
14	0x40828807	4.079105
15	0x40a2ccbf	5.0874934
16	0xc08a0993	-4.3136687
17	0x3f85e217	1.0459622
18	0xc042a8f9	-3.0415633
19	0x3f508948	0.81459475
20	0xc1106cec	-9.026592
21	0xc0c4a37a	-6.1449556
22	0xbfff55eb	-1.9948095
23	0xc11c6313	-9.774188
24	0xc0cfbb95	-6.491648
25	0xbd4fb224	-0.050706998
26	0xbf7b8ca5	-0.9826148
27	0x40971038	4.72073
28	0xc0f24e2e	-7.5720434
29	0xc030362d	-2.7533066
30	0xc06b48b9	-3.6763136
31	0x3e02c4bc	0.1277036
32	0x406171a2	3.5225606
33	0x408f1086	4.470767
34	0x40668f26	3.602487
35	0x402449ac	2.5669966
36	0x409c3420	4.881363
37	0x40714a11	3.7701457
38	0x40576980	3.3658142
39	0x40a2eb4a	5.091222
40	0x40861787	4.190372
41	0x4071ebe4	3.7800226
42	0x4016fca0	2.359169
43	0x405666ec	3.3500319
44	0x40c16faf	6.0448833
45	0x40936472	4.6060114
46	0x404fbeed	3.2460282
47	0x40582736	3.3773932
48	0x406810f8	3.6260357
49	0x40b51595	5.6588845
50	0x405ff14e	3.499103
51	0x408033dd	4.006331
52	0x4080b620	4.022232
53	0x404efc25	3.2341397
54	0x407635df	3.847038
55	0x40626998	3.537695
56	0x40951586	4.6588774
57	0x408f679c	4.4813976
58	0x4083bc2e	4.116721
59	0x40772da1	3.86216
60	0x4074ada8	3.8230991
61	0x407f294a	3.986895
62	0xbf17a840	-0.59241104
63	0x3dff1c41	0.12456561
64	0xbdeba8de	-0.11506818
65	0xbdf8dcf9	-0.12151522
66	0x3e16093f	0.14651965
67	0x3dae7d1a	0.08519955
68	0x3d0f7d44	0.035031572
69	0xbd19484c	-0.037422463
70	0x3dc99816	0.09843461
71	0xbd9bf014	-0.07614151
72	0xbd68b01c	-0.056808576
73	0xbdec542a	-0.115394905
74	0x3d4042f0	0.046938837
75	0xbe1811c0	-0.14850521
76	0x3e31306b	0.17303626
77	0xbe282e85	-0.16423996
78	0x3e09f981	0.13474084
79	0xbe1f970b	-0.15584962
80	0xbe102221	-0.14075519
81	0xbdcc3a9d	-0.09972117
82	0x3e31a921	0.17349674
83	0x3cce4fb8	0.025184497
84	0x3c833a28	0.016018942
85	0xbd9440e8	-0.072389424
86	0xbe11f281	-0.14252664
87	0xbe1c64b9	-0.15272798
88	0xbe0bc547	-0.13649474
89	0xbe338c03	-0.17533879
90	0xbdc1eb92	-0.094687596
91	0xbc61e9f0	-0.013788685
92	0x3d1e3ea4	0.038633958
93	0xbcdcc198	-0.026947781
94	0xbe2739d9	-0.16330661
95	0xbd81d3d7	-0.06339233
96	0x40a5b109	5.1778607
97	0x41842b64	16.521187
98	0x401773e6	2.3664489
99	0xc04ad5ea	-3.1693063
100	0xc1614d62	-14.081392
101	0xc1316033	-11.085986
102	0x40e2d267	7.088184
103	0x4099451f	4.7896876
104	0xc16a5e4f	-14.648025
105	0xc12f365c	-10.950771
106	0xc116d2c0	-9.426453
107	0x40c5469c	6.1648693
108	0x40b8f9cc	5.780493
109	0xc10b6235	-8.711476
110	0x404ae3a8	3.170145
111	0x403c6bba	2.944075
112	0xc1838261	-16.438662
113	0xc11141ec	-9.078594
114	0x40a2bb10	5.085335
115	0x3fd8f34e	1.6949251
116	0xc1181ced	-9.507062
117	0xc147b1ec	-12.480938
118	0x410fe512	8.993425
119	0x411302e0	9.188202
120	0x4135b674	11.357044
121	0x41125882	9.146608
122	0xc18bc386	-17.47047
123	0xc0cd6a34	-6.4192142
124	0xc1a05ef9	-20.046373
125	0x40bbc978	5.8683434
126	0x406f6daa	3.7410684
127	0xc1785040	-15.519592
128	0x4107e42a	8.493204
129	0xc0b341bf	-5.6017756
130	0x41b465fb	22.549795
131	0x4008380e	2.1284213
132	0xc0b62e69	-5.6931653
133	0x41290f62	10.566256
134	0xc12d625d	-10.836514
135	0x40fe9125	7.955218
136	0xc0ffbeb2	-7.992028
137	0x40d19731	6.549706
138	0x41e74452	28.90836
139	0xc1c2dbd6	-24.357342
140	0x40841024	4.1269703
141	0x40217eaa	2.523356
142	0x41083182	8.512087
143	0xc10c5962	-8.771822
144	0xc1dcb18c	-27.586693
145	0xc20e51e5	-35.579975
146	0xc18cc535	-17.596292
147	0xc111ec67	-9.120215
148	0x40cf6436	6.480983
149	0x3f82bdde	1.0214193
150	0xc0b1aaaf	-5.5520854
151	0xbfc6f8e2	-1.5544703
152	0xc139a833	-11.603564
153	0xc07f44b9	-3.9885695
154	0x41552a33	13.322803
155	0xc099694b	-4.794103
156	0xc20bbcfd	-34.93456
157	0x41acb36b	21.587606
158	0xc14f3504	-12.950443
159	0xc0bdf706	-5.936404
160	0xc1407fd6	-12.03121
161	0xc13feac5	-11.994817
162	0x40667854	3.6010942
163	0xc1207f92	-10.031145
164	0xc185a436	-16.705181
165	0x40ea7c49	7.3276715
166	0xc036d5d3	-2.8568008
167	0xc13b768f	-11.716445
168	0x411ddd5b	9.866542
169	0xc01bb934	-2.433179
170	0xc1a1534e	-20.165676
171	0x414718a1	12.443513
172	0xc0ca1535	-6.3150887
173	0xc00abf55	-2.167928
174	0x41a0d3a6	20.103344
175	0xbf16333f	-0.58671945
176	0xc106d68c	-8.42738
177	0x403f24d4	2.9866228
178	0xc08c8f02	-4.392457
179	0xc16d6c90	-14.8390045
180	0xc19430b7	-18.523787
181	0x41951112	18.633335
182	0x40a4fa74	5.155573
183	0xc17510b0	-15.316574
184	0xc09d328b	-4.91242
185	0x414feef2	12.995836
186	0x3f59f4e3	0.8513929
187	0x41675681	14.458619
188	0xc19551e4	-18.664986
189	0x3fed30fd	1.8530575
190	0xc1232689	-10.196908
191	0xbff061ac	-1.8779807
192	0xc15a653f	-13.649718
193	0xc033c63f	-2.808975
194	0xc19916e0	-19.13617
195	0xc114715d	-9.277677
196	0xc0df85eb	-6.9850974
197	0xc0bdf098	-5.9356194
198	0xc19bbae0	-19.466248
199	0x3ffda148	1.9814844
200	0xc189a8b3	-17.207373
201	0xc0e4a832	-7.1455317
202	0xbf5bcd03	-0.858597
203	0xc0c13303	-6.037477
204	0xc18ce22f	-17.610441
205	0xc16522b4	-14.320972
206	0x41053a3a	8.326715
207	0x40499b4d	3.1501038
208	0xc0c3700a	-6.1074266
209	0xc08f9bda	-4.487775
210	0xc1a73261	-20.8996
211	0xc06aff57	-3.6718347
212	0xc101afd4	-8.105427
213	0x406568d9	3.5845244
214	0xc18d667e	-17.675045
215	0xc138d4af	-11.551925
216	0x4017cdb5	2.3719304
217	0xc103704e	-8.214918
218	0xc07049a9	-3.7544959
219	0xc1362dba	-11.386164
220	0xc0928b3b	-4.579496
221	0xc0744aad	-3.8170578
222	0x4008aea7	2.13566
223	0x4172c08c	15.1720085
224	0xc0e3cd4d	-7.118811
225	0xc04095c2	-3.0091405
226	0xc1108f54	-9.034992
227	0x40098076	2.1484656
228	0xc11cc89d	-9.798978
229	0xc08bd9ad	-4.3703218
230	0xc015f695	-2.3431752
231	0xc0c7c933	-6.2433105
232	0xc108b177	-8.543326
233	0x3dd8821e	0.10571693
234	0xc0b5d79f	-5.682571
235	0x40646495	3.568639
236	0xc0cc473e	-6.3836966
237	0xc088c5a7	-4.2741275
238	0xc0ea4dea	-7.322011
239	0xc04769be	-3.115829
240	0xc14236a5	-12.138341
241	0xbff56c2a	-1.9173634
242	0xc03c475f	-2.9418561
243	0xc09a6c9b	-4.8257575
244	0xc087bdd3	-4.241922
245	0xc11b39c5	-9.701604
246	0xc11af787	-9.6854315
247	0xc09c3db1	-4.8825307
248	0xbfe5ca6d	-1.79524
249	0xc094a73b	-4.645414
250	0xc12230de	-10.13693
251	0xc161be1c	-14.108913
252	0xc08cbb1a	-4.3978395
253	0xc0893c9c	-4.2886486
254	0x4257a6d9	53.912937
255	0xc25e73aa	-55.612953

hidden1.bias f4 [16]
0	0x429bc343	77.88137
1	0x424bd669	50.959385
2	0xbe0eb360	-0.13935614
3	0x413bd2dc	11.738979
4	0xc1de83c4	-27.814339
5	0xc123fd4f	-10.249343
6	0x41d12817	26.144575
7	0x41b0262d	22.01864
8	0x432c7344	172.45026
9	0x4266c5eb	57.69328
10	0x3e190763	0.14944224
11	0x426319af	56.77508
12	0xc184f9ad	-16.621912
13	0x415c502a	13.769571
14	0xc0a2ac0a	-5.083501
15	0x420b262f	34.78729

hidden2.weight f4 [8, 16]
0	0xbe77f1c1	-0.24213316
1	0xbf0d3ecb	-0.5517394
2	0xbe10cd12	-0.14140728
3	0xbe312909	-0.1730081
4	0x3ce512b0	0.027963012
5	0xbd7c2a69	-0.061563883
6	0xbe7429fa	-0.23844138
7	0x3c84a993	0.01619414
8	0xbdfde1e2	-0.12396599
9	0xbea800e5	-0.32813182
10	0x3d805128	0.06265479
11	0x3ba32fee	0.004980079
12	0x3e56cbf5	0.20976241
13	0xbcc54a29	-0.024083214
14	0x3d9c67e4	0.07637003
15	0xbe400dcc	-0.18755263
16	0x4012eb3f	2.2956083
17	0x3fe34cca	1.7757809
18	0xbb846b40	-0.0040411055
19	0x403c649b	2.9436405
20	0x3f2ddc30	0.67914104
21	0x3e0d87e2	0.13821366
22	0xbf79a877	-0.9752268
23	0xc0117a3e	-2.273086
24	0x411a7287	9.652961
25	0x3e84a7d0	0.2590928
26	0xbe3cb64d	-0.18428917
27	0x4088b248	4.271763
28	0xbe2980dd	-0.16553064
29	0x3d07d28d	0.03315978
30	0xbe94e1e6	-0.29078597
31	0x40229d29	2.5408423
32	0x3f91a60d	1.13788
33	0x3f60f8ee	0.87879837
34	0x3dd6ef30	0.1049484
35	0x3fbabc92	1.4588797
36	0x3eac6e4e	0.33677906
37	0x3d8cd1ea	0.068759754
38	0xbef78372	-0.48342472
39	0xbf902c4a	-1.1263516
40	0x4098fe9e	4.781081
41	0x3e039b41	0.12852193
42	0x3a805d2c	0.0009793392
43	0x40077b85	2.116914
44	0xbda850d7	-0.08218544
45	0x3c8a31a6	0.016869377
46	0xbe13b7dc	-0.14425606
47	0x3fa118ab	1.2585653
48	0xc09799b3	-4.737512
49	0xc106f33a	-8.4343815
50	0xbd9fdc64	-0.07805708
51	0xbe98f7d4	-0.29876578
52	0xc112513e	-9.1448345
53	0x400111e0	2.016716
54	0xbf6f1f84	-0.93407464
55	0xc12760f8	-10.461174
56	0x40947f7f	4.6405635
57	0xc06f864d	-3.742572
58	0x3dadd79c	0.0848839
59	0xc07a7e66	-3.9139647
60	0xc1883e6b	-17.030478
61	0xc09ba3a6	-4.8637266
62	0xc081db55	-4.058024
63	0x40ea254a	7.317052
64	0xbeb27870	-0.34857512
65	0xc0a89d10	-5.2691727
66	0x3e01c97c	0.12674516
67	0xc1393655	-11.575765
68	0xbf340470	-0.7031927
69	0xc1b8a772	-23.08176
70	0xc1901c6e	-18.013882
71	0x40595546	3.3958297
72	0xc1bf3b88	-23.904068
73	0xc0fe2e07	-7.9431186
74	0x3e1e1606	0.15438089
75	0xc09b3853	-4.8506255
76	0x3f390395	0.7227109
77	0xc1720ca2	-15.128084
78	0xc0f3545b	-7.6040473
79	0xc006ec9f	-2.1081922
80	0x405a8c05	3.414796
81	0x401f85bf	2.4925382
82	0xbdae8964	-0.08522299
83	0x408b648f	4.356025
84	0x3f814745	1.0099875
85	0x3e5133ff	0.20429991
86	0xbfba1513	-1.4537681
87	0xc0585164	-3.3799677
88	0x4166e18a	14.430063
89	0x3ec70d1b	0.38877186
90	0xbe7fb0c3	-0.24969773
91	0x40cb1072	6.3457575
92	0xbe81d551	-0.2535806
93	0x3d489145	0.048966665
94	0xbee0ca64	-0.43904412
95	0x4070f697	3.7650506
96	0xc082b81d	-4.084975
97	0xc096013a	-4.6876497
98	0xbe725342	-0.23664573
99	0xc09d5bdc	-4.9174633
100	0xc1f206db	-30.253347
101	0xc0af6b29	-5.481831
102	0xc01fd91e	-2.4976268
103	0xc07a08e4	-3.9067926
104	0x40a61890	5.1904984
105	0xc055395e	-3.3316264
106	0xbe70ac14	-0.23503143
107	0xc03b1e22	-2.9237142
108	0xc1f7f43b	-30.994253
109	0xbff445c9	-1.9083797
110	0xc13ea062	-11.914156
111	0xc042570e	-3.0365634
112	0xc0249333	-2.5714843
113	0xc1617866	-14.091894
114	0xbd1c2a00	-0.03812599
115	0x3f974c3c	1.182014
116	0x4002be64	2.0428705
117	0xc162f373	-14.184436
118	0xbef4fe93	-0.47850475
119	0x40e2ebed	7.0912995
120	0x407efbd0	3.9841194
121	0xc0c7b513	-6.240854
122	0xbe701c32	-0.23448256
123	0xc0b14e5a	-5.5408144
124	0x40393a59	2.8941863
125	0x3fe48132	1.7851927
126	0x4101154e	8.067701
127	0xc1a3dd96	-20.483196

hidden2.bias f4 [8]
0	0x3d49c66b	0.04926149
1	0x423d5dc5	47.34157
2	0x41bba064	23.453316
3	0xc0437569	-3.0540411
4	0x4109da2d	8.615766
5	0x428f8fd7	71.78094
6	0x41846e89	16.553972
7	0x3f192f92	0.5983821

output.weight f4 [1, 8]
0	0xbedffecc	-0.43749082
1	0x3fe77235	1.8081728
2	0x3f651557	0.89485687
3	0x3fe61ba9	1.7977191
4	0x3f00a641	0.50253683
5	0x4022b18a	2.5420861
6	0x401bdef9	2.4354842
7	0x3f8fb424	1.122685
