neural network/model.ckpt (torch, 7359 bytes, 7 tensors)

hidden1.weight f4 [16, 32]
0	0x3dd74479	0.10511107
1	0x3dc1cd15	0.094629444
2	0x3e149e93	0.14513616
3	0x3dbb06da	0.09132166
4	0x3e2233cc	0.15840071
5	0x3dc7a52a	0.097482994
6	0x3df455d8	0.11930436
7	0x3dbffba3	0.09374168
8	0x3dc0976e	0.09403883
9	0x3dbeca44	0.09315923
10	0x3e343206	0.17597207
11	0x3e16b7fc	0.14718622
12	0x3e3d7e3e	0.18505189
13	0x3e35e64b	0.17763631
14	0x3dbfb39b	0.09360429
15	0x3e1fb6f4	0.15597135
16	0x3dc01403	0.09378817
17	0x3e3f8dc6	0.18706426
18	0x3e072ff8	0.13201892
19	0x3da43601	0.08018113
20	0x3e1a2e50	0.1505673
21	0x3da432f4	0.08017531
22	0x3e039f86	0.12853822
23	0x3e35e632	0.17763594
24	0x3dcc0272	0.09961404
25	0x3e1f7925	0.15573557
26	0x3dc09356	0.09403102
27	0x3e23cddd	0.159965
28	0x3e287183	0.16449551
29	0x3e2625a0	0.1622529
30	0xbd9f5a2d	-0.077808715
31	0xbdcc5a1d	-0.09978125
32	0x3cc0078d	0.0234411
33	0x3cbf1c3c	0.023328893
34	0xbcc8d120	-0.024513781
35	0xbd42411c	-0.047425374
36	0x3b86feeb	0.004119744
37	0xbd419489	-0.047260795
38	0x3d021111	0.031754557
39	0x3d03a396	0.03213843
40	0x3ccd7e4e	0.02508464
41	0xbd1e0ed0	-0.038588345
42	0xbc41e7ae	-0.011835022
43	0x3d183e54	0.037168816
44	0xbce1fa69	-0.027585225
45	0x3c2960c1	0.010338009
46	0xbc993ca9	-0.018705683
47	0xbab714db	-0.0013968007
48	0xbd4ec372	-0.05047936
49	0x3c0091a2	0.007847222
50	0xbd495be4	-0.0491599
51	0x3ce9d8bb	0.028545728
52	0xbaba3d41	-0.0014208929
53	0xbc2701f1	-0.010193334
54	0xbd1bb1d0	-0.038011372
55	0xbd9654d3	-0.07340398
56	0xbc238aea	-0.00998185
57	0xbcff5d51	-0.031172426
58	0xbd535e81	-0.051603798
59	0x3b862ce3	0.0040947064
60	0xbc0274a0	-0.007962376
61	0x3c2b6a12	0.010462301
62	0x3cc677a3	0.02422697
63	0x3d28f929	0.041253243
64	0x3d3b7737	0.04576799
65	0x3d20d999	0.039270017
66	0x3d0e6437	0.03476354
67	0x3cfd1fd3	0.030898964
68	0x3d651aab	0.055933636
69	0x3d927773	0.071516894
70	0x3cefb251	0.029259833
71	0x3d123a27	0.03569999
72	0x3d329bb5	0.043605525
73	0x3d88da76	0.06682293
74	0x3ca66fc9	0.020316975
75	0x3d845521	0.064615496
76	0x3d0a3757	0.033744182
77	0x3ccb16d2	0.024791155
78	0x3a59acd0	0.0008303644
79	0x3d3e0c21	0.046398286
80	0x3d9d9e8c	0.07696256
81	0x3d8903a0	0.066901445
82	0x3d743c81	0.059628014
83	0x3ce4eb14	0.027944125
84	0x3d5a7e0c	0.053342864
85	0x3d405df1	0.04696459
86	0x3dbfa90f	0.09358417
87	0x3ce0dc88	0.027448907
88	0x3dc16709	0.094434805
89	0x3db0cb02	0.08632471
90	0x3d88b485	0.06675056
91	0x3d4c9b7b	0.049952965
92	0x3ce75a48	0.028241292
93	0x3dbfabd3	0.09358945
94	0x3dd7c275	0.105351366
95	0x3ca9f2e1	0.020745696
96	0x3bf2b391	0.00740666
97	0x3b2456cc	0.002507615
98	0xbe2652f8	-0.16242588
99	0xbcea68e7	-0.028614474
100	0xbd5f7b2e	-0.054560833
101	0x3bc429e1	0.0059864377
102	0xbd8e7f6b	-0.06957897
103	0xbc43e919	-0.01195743
104	0xbe1dd9b6	-0.15415081
105	0xbce96f71	-0.028495522
106	0xbe5bd558	-0.21468103
107	0xbdf6debe	-0.120542035
108	0xbe0ab818	-0.13546789
109	0xbdc0374a	-0.093855456
110	0xbd8ea390	-0.06964791
111	0xbdb36551	-0.08759559
112	0xbbb3a546	-0.0054823486
113	0xbdbeb6d3	-0.09312215
114	0xbd87c600	-0.066295624
115	0xbd9294ec	-0.07157311
116	0x3d548a9a	0.051889993
117	0x3d82ccba	0.06386705
118	0xbd6b3f93	-0.057433676
119	0xbddc8608	-0.10767752
120	0x3cb28b96	0.021795075
121	0x3d845f36	0.064634725
122	0xbdb01d75	-0.085993685
123	0xbcf195bd	-0.029490346
124	0xbde9900c	-0.11404428
125	0xbc2eab8e	-0.010661019
126	0x3da9bddd	0.08288167
127	0x3daaaa6b	0.08333286
128	0x3db72d5b	0.08944198
129	0x3d7fc11a	0.062440015
130	0x3dbfbf17	0.09362619
131	0x3cc48e4d	0.023993636
132	0x3dbebed0	0.09313738
133	0x3dc44a39	0.09584469
134	0x3d44439b	0.047916036
135	0x3d876891	0.06611741
136	0x3d6f02d5	0.05835231
137	0x3d62c252	0.0553611
138	0x3d986ae3	0.07442262
139	0x3dbf8a90	0.093526006
140	0x3de2a51f	0.110666506
141	0x3d51da06	0.051233314
142	0x3d8d6569	0.06904108
143	0x3dc09132	0.09402694
144	0x3d5e0b7a	0.054210164
145	0x3db4b66c	0.08823857
146	0x3dbe940e	0.09305583
147	0x3da9cf9a	0.0829155
148	0x3d2b0010	0.041748106
149	0x3d596388	0.053073436
150	0x3dbfad60	0.093592405
151	0x3d8900ee	0.066896304
152	0x3dc4d87f	0.09611606
153	0x3dbf925b	0.09354087
154	0x3dfc078e	0.123061284
155	0x3d60f464	0.05492057
156	0x3d419055	0.047256786
157	0x3d459255	0.048235256
158	0xbd1f081b	-0.03882609
159	0xbc870094	-0.016479768
160	0xbcfb683d	-0.030689353
161	0xbcc16c77	-0.02361129
162	0xbcb69aac	-0.02229055
163	0xbc8d38bb	-0.017238965
164	0xbc68f924	-0.014219556
165	0xbc59c922	-0.013292583
166	0xbceb9f69	-0.028762536
167	0xbccd2b0b	-0.025044939
168	0xbca28c50	-0.019842297
169	0xbcb21636	-0.021739107
170	0xbcb7f885	-0.02245737
171	0xbcd1db14	-0.02561716
172	0xbd0ceac7	-0.03440359
173	0xbcbf33ba	-0.023340095
174	0xbcb47512	-0.02202848
175	0xbcc812e3	-0.024423068
176	0xbc9764e6	-0.01848073
177	0xbd03915d	-0.03212105
178	0xbd006b2b	-0.031352203
179	0xbc9ad330	-0.01889953
180	0xbc7de1c6	-0.015495723
181	0xbc3ad392	-0.011402981
182	0xbcbaf4ad	-0.022821749
183	0xbd13f3ec	-0.036121294
184	0xbcdee157	-0.02720706
185	0xbccaa673	-0.024737572
186	0xbce9f4d4	-0.028559126
187	0xbcaefed7	-0.021361751
188	0xbc66c10d	-0.014084113
189	0xbce2241f	-0.027605115
190	0xbb813215	-0.003942738
191	0x3b05314b	0.002032357
192	0x3d02cac0	0.03193164
193	0xbd05bd7f	-0.03265142
194	0xbcd40ed2	-0.025885973
195	0xbd386dc6	-0.045026563
196	0xbca32420	-0.019914687
197	0x3b9e43fc	0.0048298817
198	0x3b6aa354	0.0035802918
199	0xbc6bac4b	-0.01438434
200	0xbc444b5f	-0.0119808605
201	0x3d0d479a	0.034492113
202	0xbd2e3474	-0.042530492
203	0x3ce9a222	0.028519694
204	0x3c8f35d0	0.017481714
205	0xbb9c28b9	-0.0047655967
206	0x3d323207	0.04350474
207	0xbbcbc14c	-0.006218111
208	0xbd122cab	-0.03568713
209	0xbcc746b0	-0.024325699
210	0x3c5b3712	0.013379829
211	0xbd0f9b46	-0.03506019
212	0x3b983b41	0.0046457355
213	0x3d38f589	0.045156036
214	0x3c4d036e	0.012513025
215	0xbc97049a	-0.018434811
216	0xbaebf875	-0.0018003123
217	0x3cf67a4d	0.030087614
218	0x3cfd4a9e	0.03091937
219	0x3bd8c171	0.006614857
220	0xbc418d11	-0.011813418
221	0x388f4579	6.831712e-05
222	0xbbd870f0	-0.00660526
223	0x3d32b5f7	0.043630566
224	0x3e3f2b76	0.18668923
225	0x3e3f262c	0.18666905
226	0x3e3ae8ac	0.1825282
227	0x3df96031	0.1217655
228	0x3e2809a5	0.16409929
229	0x3e12aa34	0.1432274
230	0x3e3c2e86	0.18377122
231	0x3e3e0383	0.18556027
232	0x3e043025	0.1290899
233	0x3e0c9fe6	0.13732871
234	0x3e34edf6	0.176689
235	0x3e1206ed	0.14260454
236	0x3e5da255	0.21643956
237	0x3e344fdf	0.17608593
238	0x3e3294ee	0.17439625
239	0x3e1447ef	0.14480565
240	0x3e3e0ba8	0.18559134
241	0x3e36c4d3	0.1784852
242	0x3e28b1cc	0.16474074
243	0x3dd2db83	0.10295775
244	0x3dc4e3c4	0.09613755
245	0x3dbf7804	0.09349063
246	0x3e15c330	0.1462524
247	0x3e1e8210	0.15479302
248	0x3e4f7a9c	0.20261616
249	0x3e365a31	0.17807843
250	0x3e3d194e	0.18466684
251	0x3ddbb9e0	0.10728812
252	0x3e1477f1	0.14498879
253	0x3e3d33eb	0.18476836
254	0xbe5e2991	-0.21695544
255	0xbd8b8979	-0.0681333

hidden1.bias f4 [16]
0	0x3fa4ecd6	1.2884777
1	0x3fb725d5	1.430842
2	0x3fecb4da	1.8492692
3	0x3f9946b4	1.1974702
4	0x3f960fae	1.1723535
5	0x401df699	2.4681761
6	0x3fb5ed86	1.4213111
7	0x3fa0199d	1.2507817
8	0xbbf45b28	-0.0074571557
9	0x3fa11066	1.258313
10	0x40108f4f	2.2587469
11	0x3ff0f778	1.8825521
12	0x3fb80cfe	1.4378965
13	0x3ffacab4	1.959311
14	0x400f7689	2.2416098
15	0x3fb3e18d	1.4053208

hidden2.weight f4 [16, 16]
0	0x3eaf6715	0.34258333
1	0x3f35407e	0.7080153
2	0x3f0a5358	0.5403342
3	0x3fa37276	1.2769306
4	0x3eea2364	0.45730126
5	0x40b833dd	5.756331
6	0x3f648eb1	0.8928023
7	0x3eb5fcf9	0.35544565
8	0xbc6bd594	-0.014394183
9	0x3ebb2c3c	0.36557186
10	0x40623af1	3.5348475
11	0x3e9cb659	0.3060787
12	0x3f7cd6db	0.98765343
13	0x40c001a7	6.0002017
14	0x40b0cb83	5.5248427
15	0x3f144a0c	0.57925487
16	0x3eb391e9	0.35072258
17	0x3f2e0a7d	0.67984754
18	0x3f0ec2fb	0.55766267
19	0x3f9e71a5	1.2378432
20	0x3f0b88b4	0.5450547
21	0x40be2dda	5.943097
22	0x3f54e4d5	0.8316167
23	0x3f000941	0.5001412
24	0x3d770bc4	0.060313955
25	0x3f0a6a1a	0.5406815
26	0x4067eacc	3.6237059
27	0x3f17de59	0.5932365
28	0x3f7ccfec	0.98754764
29	0x40c001a8	6.000202
30	0x40b0260a	5.5046434
31	0x3f1b822a	0.6074549
32	0x3e844358	0.2583263
33	0x3f2541fd	0.64553815
34	0x3ea8253d	0.3284091
35	0x3f9ab49e	1.208637
36	0x3ec96f10	0.39342546
37	0x40b3b685	5.61603
38	0x3f485ceb	0.7826678
39	0x3e98debd	0.29857436
40	0x3d5d9ef6	0.054106675
41	0x3f09481c	0.53625655
42	0x40615b9f	3.521217
43	0x3e3f7243	0.18695931
44	0x3f7c99cf	0.98672193
45	0x40c001ab	6.0002036
46	0x40ac2fc6	5.3808317
47	0x3f105f65	0.5639556
48	0x3ee8dbe0	0.4548025
49	0x3f2b4717	0.6690535
50	0x3f0abd3a	0.54194987
51	0x3f9d3e2f	1.2284602
52	0x3eedbed6	0.4643466
53	0x40b89b85	5.7689843
54	0x3f406eec	0.75169253
55	0x3eaea52d	0.34110394
56	0xbce8de26	-0.028426241
57	0x3ebace0a	0.3648532
58	0x4062dcf3	3.5447357
59	0x3eea0009	0.45703152
60	0x3f7ce550	0.98787403
61	0x40c001a6	6.000201
62	0x40b0a235	5.5198007
63	0x3f11f853	0.5701954
64	0x3ea3a9d7	0.31965515
65	0x3f261f9b	0.64891976
66	0x3eb3b892	0.35101753
67	0x3f9e958b	1.2389387
68	0x3ef2ccaa	0.4742177
69	0x40b9b06c	5.802786
70	0x3f596df4	0.849334
71	0x3e9a9e12	0.30198723
72	0x3cd6318a	0.026146669
73	0x3f09941d	0.5374163
74	0x4063d4d5	3.5598652
75	0x3e9edb4f	0.31026694
76	0x3f7ca61f	0.9869098
77	0x40c001aa	6.000203
78	0x40aaf14f	5.3419566
79	0x3f189ca0	0.5961399
80	0x3ea593d5	0.3233935
81	0x3f2ccfd7	0.6750464
82	0x3e9ee2b4	0.31032336
83	0x3fa98ab7	1.3245457
84	0x3ed46b68	0.41488194
85	0x40b67a0c	5.7023983
86	0x3f3d33db	0.7390725
87	0x3e80e44f	0.25174186
88	0x3a0ff445	0.0005491416
89	0x3ef29098	0.4737594
90	0x40612a12	3.5181928
91	0x3e8624bd	0.26199904
92	0x3f7c83d1	0.98638636
93	0x40bf4747	5.977451
94	0x40ae6c07	5.450687
95	0x3f112dd5	0.5671056
96	0x3eeb3525	0.45938984
97	0x3f3697a4	0.71325135
98	0x3f0b021e	0.54300106
99	0x3faed2b7	1.3658055
100	0x3f0cc175	0.5498269
101	0x40ba3a8f	5.8196483
102	0x3f631f99	0.8872009
103	0x3eb96bd8	0.3621509
104	0x3c686418	0.01418402
105	0x3f0baef8	0.54563856
106	0x40649e6a	3.5721688
107	0x3ee4431d	0.44582453
108	0x3f7cf426	0.9881004
109	0x40c001a8	6.000202
110	0x40b0f073	5.5293517
111	0x3f127d38	0.5722232
112	0x3ead2e37	0.33824322
113	0x3f262739	0.649036
114	0x3ea5952e	0.32340378
115	0x3f9ecbe5	1.2405974
116	0x3f005611	0.50131327
117	0x40b9828c	5.797186
118	0x3f52658c	0.821862
119	0x3e99ffc0	0.30077934
120	0x3d77ec62	0.060528167
121	0x3efb332f	0.49062487
122	0x4060132a	3.5011697
123	0x3e9a1cd6	0.30100125
124	0x3f7c4d8b	0.9855582
125	0x40c001ab	6.0002036
126	0x40ab9e37	5.3630633
127	0x3f106e7b	0.5641858
128	0x3ea2e8a2	0.3181811
129	0x3f26d954	0.65175366
130	0x3ebde851	0.37091306
131	0x3f9ecffb	1.2407221
132	0x3f0a4b3a	0.54021037
133	0x40b70684	5.7195454
134	0x3f4776cc	0.77915645
135	0x3e9a2b85	0.30111328
136	0x3c639798	0.013891123
137	0x3eee572a	0.46550876
138	0x4061f7ad	3.530742
139	0x3ebf1a72	0.37324864
140	0x3f7ca066	0.9868225
141	0x40c001ac	6.000204
142	0x40b0c9d2	5.5246363
143	0x3f16620a	0.58743346
144	0x3ea4d435	0.3219315
145	0x3f28d503	0.6595003
146	0x3eaa4674	0.33256876
147	0x3fa6e92d	1.303991
148	0x3f0b5ae6	0.54435575
149	0x40b95fa0	5.792923
150	0x3f3ca996	0.7369627
151	0x3e9ccc08	0.30624413
152	0xba2932f9	-0.0006454434
153	0x3ef47a3f	0.47749516
154	0x4060fe66	3.5155272
155	0x3e9aca26	0.30232352
156	0x3f7cb6cf	0.98716444
157	0x40c001ac	6.000204
158	0x40ad1585	5.408877
159	0x3f10d0f0	0.56568813
160	0x3ea6d11f	0.32581422
161	0x3f291425	0.66046363
162	0x3ea6c25e	0.32570165
163	0x3f9ad402	1.209595
164	0x3eef4f46	0.46740168
165	0x40b563bb	5.668424
166	0x3f3e6dea	0.74386466
167	0x3e9ba05d	0.30395785
168	0xbc9ae7c6	-0.018909346
169	0x3edd17c5	0.43182197
170	0x4062d081	3.543976
171	0x3e1e0a4d	0.15433617
172	0x3f7ca5fa	0.9869076
173	0x40c001ab	6.0002036
174	0x40ad2586	5.4108305
175	0x3f1185be	0.568447
176	0xba3d4974	-0.0007220723
177	0xbd0cd31e	-0.034381025
178	0xbc2d8f6f	-0.010593279
179	0xbd23a747	-0.03995445
180	0x3b32ee19	0.0027302562
181	0xbd3b771e	-0.045767896
182	0x3d553be0	0.052059054
183	0x3c372b4f	0.011179759
184	0xbd5b7268	-0.053575903
185	0xbd01baa0	-0.03167212
186	0xbd01f9d5	-0.0317324
187	0xbc3d81a0	-0.01156655
188	0xbd578d7e	-0.05262517
189	0x3cd807a0	0.026370823
190	0xbd061971	-0.032739107
191	0x3cb8668b	0.022509834
192	0x3bb7bd9f	0.0056073214
193	0xbe80d38b	-0.25161394
194	0xbd441764	-0.04787387
195	0xbc3cd780	-0.011525989
196	0x3cc37df6	0.023863774
197	0xbebeac27	-0.37240717
198	0xbeb4bd7a	-0.3530081
199	0x3dafc37f	0.0858221
200	0x3d21cbde	0.039501064
201	0xbce81063	-0.028328126
202	0xbec13734	-0.3773743
203	0x3d06319e	0.032762162
204	0xbf383ec8	-0.71970797
205	0xbf3fee90	-0.7497339
206	0xbf0f3678	-0.5594249
207	0xbdbd6150	-0.092470765
208	0x3efe5ddf	0.49680993
209	0x3f4c00ea	0.79688895
210	0x3f1cdca4	0.6127417
211	0x3fb1c0f3	1.3887008
212	0x3eece3d9	0.46267584
213	0x40bf5086	5.9785795
214	0x3f72216d	0.94582254
215	0x3ef3cac8	0.47615647
216	0xbce2a1e2	-0.027665082
217	0x3f0b182c	0.5433376
218	0x4069b15b	3.65145
219	0x3f333465	0.7000182
220	0x3f7ce7ce	0.98791206
221	0x40c001a8	6.000202
222	0x40b1f7f3	5.5615172
223	0x3f244725	0.6417106
224	0xbc3f778e	-0.011686219
225	0x3d6d0094	0.05786188
226	0xbd3594ce	-0.044331364
227	0xbc234103	-0.0099642305
228	0x3c109a7e	0.008825896
229	0xbd1b57f1	-0.037925664
230	0xbd80ba25	-0.06285504
231	0xbd32294a	-0.043496408
232	0x3cb28ac0	0.021794677
233	0xbcf2dbbc	-0.029645793
234	0x3cacc032	0.02108774
235	0xbd22aba6	-0.039714478
236	0x3d2ed936	0.042687617
237	0xbb9ac181	-0.0047227745
238	0x3c7a53b4	0.015278745
239	0xbd83c11a	-0.064333156
240	0x3efd589d	0.4948167
241	0x3f2dfc6c	0.6796329
242	0x3f0b034c	0.54301906
243	0x3f9e9885	1.2390295
244	0x3ef46276	0.4773137
245	0x40bab83a	5.8349886
246	0x3f5e7486	0.8689655
247	0x3ef07511	0.46964315
248	0xbd6c7ba2	-0.057735093
249	0x3f0bb021	0.54565626
250	0x40664f41	3.5985873
251	0x3ef94d78	0.48691916
252	0x3f7cf40f	0.98809904
253	0x40c001a8	6.000202
254	0x40adfb14	5.436899
255	0x3f1e5d2b	0.61860913

hidden2.bias f4 [16]
0	0x3fa6fb54	1.3045449
1	0x3fb55ec2	1.4169543
2	0x3fa21449	1.266244
3	0x3fa3dddc	1.2802081
4	0x3fac5be2	1.346554
5	0x3fa80187	1.3125466
6	0x3fb28cc9	1.3949214
7	0x3fac50e1	1.3462182
8	0x3fabd44c	1.3424163
9	0x3f9f35d2	1.24383
10	0x3fa11472	1.2584364
11	0xbd093dd0	-0.033506215
12	0xbe4a572f	-0.1975982
13	0x3fbcd02f	1.4751033
14	0x3c4f6f54	0.01266082
15	0x3fae9d4b	1.3641752

hidden3.weight f4 [16, 16]
0	0x3f91c2ac	1.1387534
1	0x3fbf303a	1.4936593
2	0x3f9ddd1d	1.2333103
3	0x3f8d9bfd	1.1063229
4	0x3f977467	1.1832398
5	0x3fa92122	1.3213236
6	0x3f90344e	1.1265962
7	0x3f934ebe	1.1508405
8	0x3fa0353f	1.251625
9	0x3f9065f8	1.1281118
10	0x3fa72d46	1.3060691
11	0x3cafd2f8	0.021462902
12	0x3f342f78	0.7038493
13	0x3fba24e0	1.4542503
14	0x3d16faca	0.036860265
15	0x3fbb0e61	1.4613763
16	0x3f9b4107	1.212922
17	0x3f652e2c	0.8952358
18	0x3fb6a6cd	1.4269654
19	0x3f6e6a16	0.93130624
20	0x3f9b953d	1.2154919
21	0x3fa2b68e	1.2711961
22	0x3f818667	1.0119141
23	0x3f95b64c	1.1696258
24	0x3f88932b	1.0669912
25	0x3f9e7085	1.2378088
26	0x3fac6b70	1.3470287
27	0xbd6fa688	-0.058508426
28	0x3f2f88d0	0.68568134
29	0x3fa037df	1.251705
30	0xbd136f56	-0.03599485
31	0x3f59c79f	0.8507022
32	0x3d32e3a4	0.043674126
33	0x3c4d7868	0.012540914
34	0x3ccf1eb4	0.025283195
35	0x3b4ea53c	0.0031531593
36	0xbd73de52	-0.059538193
37	0x3d28f310	0.041247427
38	0xbd162132	-0.03665275
39	0xbbbaf46e	-0.005705408
40	0xbc335476	-0.01094543
41	0xbd799bfa	-0.060939766
42	0xbd704d56	-0.058667503
43	0x3d2b9142	0.041886576
44	0x3cd30574	0.025759436
45	0xbd5a15f0	-0.053243577
46	0x3d67afbc	0.056564078
47	0xbcecd49a	-0.02890997
48	0xbc95227f	-0.018204926
49	0xbd8525a0	-0.06501317
50	0xbd4c7b3c	-0.049922213
51	0xbcef31be	-0.029198524
52	0xbcb18d71	-0.02167389
53	0xbc31e0a8	-0.010856785
54	0x3d4b618c	0.049653575
55	0x3d557d2a	0.05212132
56	0x3c0a0f5f	0.008426516
57	0xbc91809b	-0.01776152
58	0x3c71dd7a	0.014762277
59	0x3c5b7b48	0.013396092
60	0x3d0f5d92	0.035001345
61	0xbd25d7fd	-0.040489186
62	0xbcb75a6e	-0.022381987
63	0x3d78de92	0.060759135
64	0xbd837e71	-0.06420601
65	0xbc09da4d	-0.008413863
66	0xbcd160d6	-0.02555887
67	0xbd21fba6	-0.03954663
68	0x3bb84fba	0.0056247385
69	0xbc1ae711	-0.009454505
70	0xbd861304	-0.06546596
71	0xbbbc624a	-0.0057490217
72	0x3c04f5af	0.008115216
73	0x3cdccdd4	0.026953615
74	0xbd6da602	-0.058019646
75	0x3d47f9dc	0.04882227
76	0xbd2d4916	-0.04230603
77	0x3cd405d8	0.025881693
78	0x3c18db32	0.009329604
79	0x3d25de21	0.04049504
80	0x3f9cb8ff	1.2243956
81	0x3f80f211	1.0073873
82	0x3fa68b27	1.3011216
83	0x3f86d6d0	1.0534306
84	0x3f851efd	1.0400082
85	0x3f963c98	1.1737242
86	0x3f88ce87	1.0688027
87	0x3fa117e2	1.2585413
88	0x3f86e204	1.0537724
89	0x3f9402fa	1.1563408
90	0x3fbab762	1.4587214
91	0xbc5ffc84	-0.013671044
92	0x3f35b90b	0.7098548
93	0x3fba24db	1.4542497
94	0x3d565b26	0.05233302
95	0x3f88b78a	1.0681012
96	0xbcbc7c9b	-0.023008635
97	0xbd3cc79c	-0.0460888
98	0xbc56cccd	-0.013110352
99	0xbb28d317	-0.0025760585
100	0x3d393664	0.045217887
101	0x3d046620	0.032323956
102	0x3b7d9fee	0.0038700062
103	0xbd834474	-0.06409541
104	0x3c89bfd1	0.016815098
105	0x3d3219ce	0.04348164
106	0x3c252bc1	0.0100812325
107	0x3c814fb6	0.01578508
108	0x3d6d49ba	0.05793164
109	0xbceeaaa8	-0.02913411
110	0x3d7f7ff6	0.062377892
111	0x3d02de04	0.03195001
112	0x3f904637	1.1271428
113	0x3f878e38	1.0590277
114	0x3fa53666	1.2907226
115	0x3f68a6a6	0.90879285
116	0x3f918e49	1.1371547
117	0x3f973f31	1.181616
118	0x3f86f189	1.0542461
119	0x3f85d50d	1.0455643
120	0x3f82f50c	1.0231032
121	0x3f92266a	1.1417973
122	0x3fad2380	1.3526459
123	0xbce61fa2	-0.028091256
124	0x3f29c0b1	0.6630965
125	0x3f5e3dbd	0.86812955
126	0x3c1629fb	0.009165282
127	0x3f6d3368	0.92656565
128	0xbc927b78	-0.01788114
129	0x3c62f766	0.01385293
130	0x3cd2b460	0.025720775
131	0xbd2f39a3	-0.042779576
132	0x3c887925	0.016659329
133	0xbd5a2162	-0.053254493
134	0x3d383240	0.044969797
135	0xbc518c10	-0.012789741
136	0x3cbddec9	0.023177521
137	0xbd29ab5b	-0.041423183
138	0x3d8274dd	0.06369946
139	0x3ca26215	0.01982216
140	0xbd30117e	-0.04298543
141	0xbd53f556	-0.051747642
142	0xbb633c9c	-0.0034673577
143	0x3c6d87ee	0.01449774
144	0xbc3c142e	-0.011479421
145	0xbce9b034	-0.028526403
146	0xbc44003e	-0.011962948
147	0xbd2e8b98	-0.042613596
148	0x3d5ea640	0.054357767
149	0x3cb00dca	0.02149095
150	0x3d53b46c	0.051685736
151	0xbd1cb566	-0.038258933
152	0xbb294fde	-0.0025834958
153	0xbb9f448e	-0.0048604673
154	0x3cfc55ac	0.03080257
155	0xbc720d1c	-0.014773633
156	0x3d75607e	0.059906475
157	0xbd33b074	-0.04386945
158	0xbbf3a2fc	-0.0074352007
159	0x3c23fb96	0.010008713
160	0x3d036943	0.032082807
161	0x3ca0e6b3	0.019641256
162	0xbdfc1fb6	-0.12310736
163	0x3d6e5c1e	0.05819332
164	0xbda08e4a	-0.078396395
165	0xbcceb8b7	-0.025234563
166	0x3dbee10b	0.09320267
167	0xbd6cb0e9	-0.057785902
168	0xbdb22956	-0.086992905
169	0xbd27051f	-0.04077637
170	0xbd08ec78	-0.03342864
171	0x3d1f6b76	0.038920842
172	0xbf1689b1	-0.5880385
173	0x3da041be	0.07825039
174	0x3d81fbe9	0.06346876
175	0x3dc02731	0.09382475
176	0x3f7d685b	0.9898736
177	0x3f44f0f1	0.7693015
178	0x3f9facde	1.247463
179	0x3f6a026f	0.91409963
180	0x3f746525	0.95466834
181	0x3facacd9	1.3490249
182	0x3f6eaf70	0.93236446
183	0x3f83153d	1.0240856
184	0x3f6c3306	0.92265356
185	0x3f87aa3c	1.0598826
186	0x3fad3459	1.35316
187	0xbcc10b72	-0.023565028
188	0x3f361295	0.71122104
189	0x3f400279	0.7500377
190	0x3d15b88e	0.03655296
191	0x3f40cffc	0.7531736
192	0x3f94cc26	1.1624801
193	0x3f73b7d4	0.95202374
194	0x3fa82d03	1.3138736
195	0x3f84e714	1.038302
196	0x3f90adf7	1.130309
197	0x3fa8fb66	1.3201721
198	0x3f6b3395	0.9187558
199	0x3f8fb23b	1.1226267
200	0x3f8762da	1.0577042
201	0x3f89e27f	1.0772246
202	0x3fb32766	1.3996398
203	0x3b9db605	0.004812958
204	0x3f139ef1	0.576644
205	0x3f93888f	1.1526049
206	0x3d45bb04	0.048274055
207	0x3f6ef669	0.9334474
208	0xbc9798a8	-0.01850541
209	0xbce3712a	-0.027763922
210	0xbb8b3341	-0.0042480533
211	0xbd195ae3	-0.037440192
212	0x3c279075	0.010227312
213	0xbcd1f31a	-0.025628615
214	0xbd2969c7	-0.041360643
215	0xbd1b909a	-0.0379797
216	0x3d04f575	0.03246065
217	0x3d7ec260	0.06219709
218	0x3d213ccd	0.039364625
219	0xbd03d924	-0.032189503
220	0xbd7d7ad4	-0.061884716
221	0x3c58a376	0.013222566
222	0x3a9aaef4	0.0011801408
223	0x3bdea8b2	0.0067950124
224	0xbc607494	-0.013699669
225	0xbd85c137	-0.065309934
226	0x3b5dc03c	0.0033836504
227	0x3c871d26	0.016493391
228	0xbd309892	-0.043114252
229	0x3d18715c	0.037217483
230	0xbd3ff08a	-0.046860255
231	0x3b15243e	0.0022757198
232	0x3d785590	0.060628474
233	0xbd24b4b0	-0.04021138
234	0x3c629794	0.013830084
235	0xbcd60b6c	-0.026128493
236	0x3cf11ba0	0.029432118
237	0xbd844138	-0.06457752
238	0xbd2d1236	-0.042253695
239	0x3bb6485e	0.005562826
240	0x3f8f8dbc	1.1215129
241	0x3f56675a	0.8375145
242	0x3fa0e740	1.2570572
243	0x3f66050c	0.8985145
244	0x3f909f71	1.1298658
245	0x3f967983	1.1755832
246	0x3f65c915	0.8975995
247	0x3f9832a5	1.1890455
248	0x3f73c4d7	0.9522223
249	0x3f9402f9	1.1563407
250	0x3fa1123d	1.2583691
251	0xbd2cb4c2	-0.04216457
252	0x3f0a3492	0.53986466
253	0x3f5b168c	0.8558128
254	0x3d8084be	0.062753186
255	0x3f5e1fe0	0.8676739

hidden3.bias f4 [16]
0	0x3fb282fd	1.3946224
1	0x3fa9b614	1.3258691
2	0x3b8d7bcf	0.0043177377
3	0xbd6a2f36	-0.05717393
4	0x3d588dd8	0.052869648
5	0x3fa711a7	1.3052262
6	0xbd438590	-0.047734797
7	0x3fa7fa28	1.3123217
8	0x3c90f1cc	0.017693423
9	0xbd3b37fc	-0.045707688
10	0x3d9c6a33	0.076374434
11	0x3fa9416b	1.3223089
12	0x3faf39e5	1.3689543
13	0xbcb85fc6	-0.022506606
14	0xbd653850	-0.055961907
15	0x3fa86214	1.3154931

output.weight f4 [1, 16]
0	0x3ffa3926	1.954869
1	0x3fbff3b4	1.4996247
2	0xbb92db6a	-0.0044817226
3	0x3d4ee50a	0.050511397
4	0xbd4c3a12	-0.049860068
5	0x3fbff350	1.4996128
6	0xbd7dedce	-0.061994366
7	0x3fbff3b4	1.4996247
8	0xbcdcc746	-0.02695049
9	0xbd360302	-0.044436462
10	0xbf904e4d	-1.1273896
11	0x3f8a1778	1.0788412
12	0x3fbff3a4	1.4996228
13	0xbd4fbaa4	-0.050715104
14	0x3c9cc67e	0.019137617
15	0x3fb46f49	1.4096462
