neural network/model.ckpt (torch, 7447 bytes, 3 tensors)

hidden1.weight f4 [42, 32]
000000 5b 8c 05 40 95 fa b9 c0 64 2e 28 c0 68 9b 5e c0
       2.0866916 -5.8118386 -2.6278315 -3.4782352
000010 e7 49 09 c0 90 f3 e6 40 cf e9 81 40 37 0a 8f 40
       -2.1451356 7.2172318 4.059791 4.469997
000020 b8 5b 97 bf f3 3d 9b 40 f1 59 bd 40 f8 d7 79 40
       -1.1824865 4.851312 5.917229 3.9038067
000030 2d 49 28 41 eb c5 09 3f ae 2f eb 40 fb 50 38 c1
       10.517865 0.53817624 7.3495703 -11.519771
000040 58 8c c5 3f 85 3d b6 c0 9e 20 33 c1 f0 76 14 41
       1.5433455 -5.6950097 -11.195463 9.279037
000050 73 29 cb 40 ec 79 e2 40 ef fd 16 3f 51 ba 13 c1
       6.3488097 7.077383 0.5898122 -9.232987
000060 f9 10 36 40 5b a8 3f 41 52 65 35 41 00 d3 e5 40
       2.844786 11.978602 11.337236 7.182007
000070 62 89 80 40 73 09 92 c0 2d 6a 94 c0 43 dc 1a c1
       4.0167704 -4.5636535 -4.637961 -9.678775
000080 62 c7 05 c1 28 71 77 c1 53 b3 dc 40 c3 81 8e c0
       -8.361177 -15.465126 6.89689 -4.45334
000090 d8 bb 8a c0 9d 74 3a 40 43 f0 ef 40 40 fe ab 40
       -4.33543 2.9133675 7.498079 5.3747864
0000a0 19 29 09 c0 c0 3f ad c0 e8 37 8b c0 1e af b9 3f
       -2.1431334 -5.414032 -4.3505745 1.4506567
0000b0 56 dd 6a c1 de 49 5d 41 e2 ef aa 40 64 a8 07 c1
       -14.679037 13.830534 5.3417826 -8.478611
0000c0 6d 2e 9a 41 0a ec 4a c1 27 9c bd c0 71 24 1d c1
       19.272669 -12.682627 -5.9253116 -9.821397
0000d0 7a f3 33 41 7e 46 66 41 ba 53 00 c1 99 10 ae 41
       11.2469425 14.39221 -8.020441 21.758104
0000e0 95 3b 1e 41 57 b9 24 40 da 77 07 c2 58 d0 90 41
       9.889546 2.5738122 -33.867043 18.10173
0000f0 08 5d 8c 40 61 a0 7f 3f 1f 71 8d 3f f5 ac 8c 3e
       4.3863564 0.99854094 1.1050147 0.27475706
000100 93 ee b0 bd aa 78 9f bd 5a 0c c0 3d 00 2c 6c 3d
       -0.086392544 -0.07786687 0.09377356 0.05765915
000110 d0 fc 2a bc 54 1d 77 3d 18 3b e4 bd ae 7a e9 3d
       -0.010436252 0.060330704 -0.11144084 0.114003524
000120 40 b7 f1 3b f4 8d 40 bd 87 d9 08 be 4c a7 0e 3d
       0.0073765814 -0.047010377 -0.1336423 0.034827515
000130 51 58 b8 bd f0 47 fc 3c bd cc 9c bd 62 63 15 be
       -0.0900122 0.030796021 -0.07656238 -0.14588693
000140 08 29 a3 bc c8 ee 7b 3d 8f 96 ca bd b8 02 3e 3d
       -0.019917026 0.061507016 -0.09891998 0.04638931
000150 7a 8f 29 be 0a 4b 8b 3d 6b 23 07 3e 52 db ba bd
       -0.16558638 0.06801422 0.13197105 -0.09123863
000160 c8 28 ce 3c 66 bf c7 bd c8 b8 96 3c 13 b1 0d be
       0.02516593 -0.09753303 0.018398657 -0.1383708
000170 a5 e0 bc bd 4a dc ca 3d 35 a3 d1 bd 91 da 9d bd
       -0.09222535 0.09905298 -0.102362074 -0.07707704
000180 31 03 eb 40 40 08 82 40 20 dc 69 41 4f 7b 11 41
       7.3441396 4.063507 14.616241 9.092605
000190 f4 ee 8c c0 4c 9a 81 41 0a e5 84 c1 b1 fa a3 40
       -4.404169 16.20034 -16.611835 5.124352
0001a0 51 72 f1 3f 77 28 61 41 8c 86 79 41 9f e1 86 c1
       1.8863012 14.072379 15.595348 -16.860167
0001b0 f8 db e3 40 49 3e 37 c1 f2 cb 62 c0 1d 4a fc bf
       7.1206017 -11.452706 -3.5436978 -1.9710118
0001c0 22 93 f7 c0 63 c9 6a c1 ee 9a 60 c0 ff bc 20 40
       -7.7367105 -14.674167 -3.5094562 2.5115354
0001d0 49 f3 e8 bf 63 a8 2e c0 6f 34 42 41 c8 b7 b9 bf
       -1.8199245 -2.7290275 12.137801 -1.450921
0001e0 85 47 aa bf 80 44 4c be e9 ed 3a c0 58 07 42 40
       -1.3303076 -0.19948006 -2.920771 3.0316982
0001f0 9e 8f 67 40 e0 a2 bb 40 a8 a6 32 bf 87 f3 b9 3c
       3.6181407 5.863632 -0.6978555 0.02269913
000200 a9 df 2a c0 34 bc df be 1a 57 8e bf 0b e8 f5 be
       -2.6699011 -0.43698275 -1.1120331 -0.48028597
000210 f4 01 5f bf a1 65 9d bf 4a 29 f8 bf 3a 8a 65 bf
       -0.87112355 -1.229664 -1.93876 -0.8966404
000220 b9 4b 88 bf 7d f6 b5 bf f7 e4 0b c0 00 8f 13 c0
       -1.0648109 -1.4215847 -2.18585 -2.305603
000230 9f 6f fd bf 6f f2 b3 bf 19 d2 81 bf 40 67 07 c0
       -1.9799689 -1.405836 -1.0142242 -2.1156769
000240 3b 1b 8f bf b6 25 d7 bf 5f e1 00 bf f3 24 82 bf
       -1.1180185 -1.6808383 -0.5034389 -1.0167526
000250 21 9d 8e bf 0d e1 1b c0 e4 cd 71 c0 c5 31 59 c0
       -1.1141702 -2.435611 -3.7781916 -3.3936627
000260 1c db 2a c0 cc 37 ad 3e 63 26 13 c0 e4 81 6d c0
       -2.6696234 0.33831632 -2.299218 -3.711053
000270 8b 0d 6b c0 a4 7c 65 c0 4c 93 0d 3e d5 b8 b3 3e
       -3.6727016 -3.5857325 0.1382572 0.35101953
000280 e0 66 14 c1 ee bb 39 c1 fc 78 67 41 57 63 f3 c0
       -9.275116 -11.608381 14.467037 -7.6058764
000290 53 cc e6 c0 84 58 2e c0 64 e9 e5 bf 8f 13 52 40
       -7.212442 -2.7241526 -1.796185 3.2824438
0002a0 29 22 e9 c0 e4 6a c3 40 ca e4 c4 c0 06 1b 21 41
       -7.28542 6.106798 -6.1529284 10.0690975
0002b0 90 7b 0e c0 71 9f c6 40 ad fa 23 c1 5a 47 09 c1
       -2.2262917 6.206963 -10.2487 -8.57992
0002c0 5b 3b a5 bf f0 14 26 c1 43 f1 ff 40 27 0d 4e 40
       -1.2908739 -10.380112 7.998201 3.2195528
0002d0 43 04 1d be 64 7a bc c0 88 a3 24 c1 2f 97 e5 40
       -0.15333657 -5.8899403 -10.289925 7.174705
0002e0 ee cd fe c0 3d 29 35 c0 d4 17 3d 40 e8 c7 60 41
       -7.962638 -2.830642 2.9545794 14.048805
0002f0 8c fb 1e 3f 28 b1 81 bf f3 3a 1b 40 e5 f7 06 c0
       0.6210258 -1.0132189 2.425473 -2.1088803
000300 13 e8 f9 bf 0f 97 24 c2 e1 8a 2f 3f 1a e4 66 bf
       -1.9523948 -41.14752 0.6857129 -0.90191805
000310 67 78 e7 40 2a 4d 89 c0 2b 7e fd c0 30 45 98 3f
       7.2334476 -4.2906694 -7.9216514 1.1896114
000320 d8 a0 bf bf 54 45 16 41 51 b0 a7 c0 6b d3 5b bc
       -1.4970961 9.391926 -5.240273 -0.013417105
000330 78 ce a2 40 8a 1d d9 c0 41 1c 38 40 c6 4a 33 bf
       5.0877037 -6.784856 2.8767245 -0.7003597
000340 3e 0a 98 40 36 65 57 40 f3 6f 99 c1 c0 2b 19 c0
       4.7512503 3.3655524 -19.179663 -2.3932953
000350 4e ad f3 c0 2c 10 56 40 ba 1b 58 c0 e7 90 e6 c0
       -7.6149054 3.344737 -3.3766923 -7.2051883
000360 ef 61 46 40 bd 54 34 bf d8 ec 13 40 5b 51 4a 41
       3.0997274 -0.704418 2.3113308 12.644862
000370 a1 e6 c7 40 f6 88 d6 be 73 d1 d8 bf 5b 2a d9 3f
       6.246903 -0.41901368 -1.6938919 1.6966051
000380 c5 6f 25 41 ce 0f 81 41 a7 71 44 41 3d 93 70 40
       10.3397875 16.132717 12.277747 3.7589867
000390 c8 0a 3e 3e 5e 40 28 c1 09 f4 c2 3d 28 6e 30 c0
       0.185588 -10.515715 0.09519202 -2.7567234
0003a0 8a 1b c2 bf df 12 02 41 58 bd 19 c0 a4 ba 1f c0
       -1.5164654 8.129607 -2.4021816 -2.4957666
0003b0 7c 17 ff 40 4a 69 04 41 31 41 6b 40 5e 75 1d 41
       7.9716167 8.275705 3.675854 9.841154
0003c0 b0 b5 f5 c0 04 fa bf c0 30 3a 05 c1 d0 f4 05 41
       -7.6784286 -5.9992695 -8.326706 8.372269
0003d0 57 d8 c1 c1 bb 18 73 be d8 9d 24 41 6b 8e a0 c1
       -24.230635 -0.23739903 10.288536 -20.06954
0003e0 93 53 a3 c0 a8 a7 41 3e cc 7d 5c 41 6c dd 02 41
       -5.103952 0.18911612 13.780712 8.179058
0003f0 48 d7 d7 c0 36 b1 67 be 2d a6 40 3f ef 51 10 bf
       -6.7450294 -0.22626194 0.75253564 -0.5637502

hidden1.bias f4 [42]
000000 54 82 ec c0 e0 f1 ae c1 fc ed 9e bd 6f 37 ed 41
       -7.390909 -21.868103 -0.07760236 29.652067
000010 19 70 33 43 49 19 a6 c0 9f 97 d5 c1 e5 13 e0 41
       179.43788 -5.1905866 -26.699034 28.009714
000020 eb 94 5e 42 de 4a 4d c0 69 08 b0 41 d4 b4 f5 41
       55.645428 -3.2076945 22.004107 30.713295
000030 73 6b 50 41 93 92 2f 42 f0 53 ed 41 fa 49 ea 3f
       13.026233 43.89314 29.665985 1.8303826
000040 94 1f 9d 3f dd bc e7 c1 2a 91 ac 40 bc 3d ac c0
       1.2275262 -28.967218 5.39272 -5.382536
000050 3a 17 0b 42 18 9b 13 42 f7 a1 21 41 0a 09 8e 41
       34.772682 36.90146 10.102042 17.754414
000060 6b c7 1e c1 12 a1 e8 41 4a cd 4a c1 4a 79 35 42
       -9.923686 29.078648 -12.675119 45.368446
000070 4f a7 4b 3f 48 df 9a c1 1c 12 af 41 51 7b ff 40
       0.7955217 -19.359024 21.883842 7.9838033
000080 08 61 5c 43 ee d4 b0 c1 81 11 12 40 08 12 53 c1
       220.37903 -22.10397 2.2823184 -13.191902
000090 45 ee 96 41 2e a3 1e c2 a6 a0 26 c0 28 64 41 c1
       18.866343 -39.659355 -2.6035552 -12.086952
0000a0 d4 55 3d 42 6b bf 47 41
       47.333817 12.484233

output.weight f4 [1, 42]
000000 41 c1 dd c0 5c 20 04 c1 6f 01 02 3e 7b 6a be 40
       -6.9298406 -8.2579 0.1269586 5.950498
000010 69 34 a6 41 45 02 88 41 7b a7 2f 42 c4 16 c9 40
       20.77559 17.001108 43.913555 6.284029
000020 e3 bd 4c 42 ec 90 c6 41 da 58 df 40 e3 fd be 40
       51.185436 24.820763 6.979596 5.968492
000030 dc 4d 08 42 bb 76 eb 40 e9 49 09 c1 98 da cb 41
       34.076035 7.3582435 -8.580544 25.481735
000040 e7 40 47 40 9d 2b dd c0 b5 14 0a c1 d4 32 de c0
       3.1133363 -6.911574 -8.630055 -6.9437046
000050 31 42 ca 40 03 0d d7 40 fe f1 cc 40 87 be ab 40
       6.32058 6.7203383 6.40454 5.3670077
000060 39 f0 aa 41 16 a1 06 42 59 3e d2 41 42 91 00 41
       21.367296 33.65731 26.280443 8.035463
000070 ef 43 bc 41 ea b5 e4 c0 e8 d2 96 40 78 5b 14 42
       23.53317 -7.1472063 4.7132454 37.089325
000080 a8 e7 b3 41 75 52 50 41 75 af 20 42 69 13 11 42
       22.488113 13.020131 40.171345 36.268955
000090 f0 55 00 42 29 08 06 c1 01 33 ea 41 bf 3c 36 41
       32.083923 -8.376992 29.274904 11.389831
0000a0 fe 82 1f c1 f2 af da c0
       -9.9694805 -6.8339777
