neural network/model31.ckpt (torch, 5803 bytes, 5 tensors)

hidden1.weight f4 [20, 32]
0	0xbf18297e	-0.5943831
1	0x3f6d21b8	0.92629576
2	0x400308d9	2.047415
3	0x401335a7	2.3001497
4	0xbe76169c	-0.24032062
5	0xbf7b78b5	-0.9823106
6	0x3dc1614f	0.09442388
7	0xbce6384a	-0.028103013
8	0x3ff60c52	1.922251
9	0x3f8440f1	1.0332319
10	0x3f968b40	1.1761246
11	0x3f36febf	0.7148246
12	0x40148d13	2.3211105
13	0x406a3d81	3.660004
14	0xc0103d74	-2.2537508
15	0x3ef39738	0.47576308
16	0x400045fc	2.0042715
17	0xbf3a79da	-0.7284218
18	0xbfd61efb	-1.6728204
19	0xbfa7ed21	-1.3119241
20	0x3ffa1c9f	1.9539984
21	0xbf375943	-0.7162058
22	0x3f2475d0	0.6424227
23	0x3fb7f6a7	1.4372147
24	0x3f274f76	0.6535562
25	0x3fd3bbe5	1.6541716
26	0xc0378f03	-2.8681037
27	0x40081261	2.1261218
28	0x3fecf5a7	1.8512467
29	0xbf91ae60	-1.138134
30	0xbf59ca02	-0.85073864
31	0xbf038dd5	-0.51388294
32	0x3f17e971	0.5934058
33	0x3f80e0bf	1.0068587
34	0xc0187656	-2.3822227
35	0xbf4e9102	-0.80690014
36	0xc005bbfd	-2.089599
37	0xbe015187	-0.12628756
38	0x3f8b5e0e	1.0888078
39	0xbe21260e	-0.15737173
40	0xbf17aa07	-0.59243816
41	0xc0153f06	-2.3319716
42	0xbf3a8224	-0.7285483
43	0xbd8a3302	-0.0674801
44	0x3e11dc45	0.14244182
45	0xbebf7da8	-0.37400556
46	0x3fd6e57d	1.6788784
47	0x3f9ecd81	1.2406465
48	0xbef50506	-0.47855395
49	0x3fa57546	1.2926414
50	0x3f957ae7	1.1678132
51	0xbf2e5b60	-0.6810818
52	0xbee5a7dd	-0.44854632
53	0xbf14cbf5	-0.58123714
54	0xc029a7a9	-2.6508582
55	0x3d32692b	0.043557327
56	0x3e5eea8c	0.2176916
57	0xbf942a5d	-1.1575428
58	0xbf16831c	-0.5879381
59	0xc0598448	-3.3986988
60	0xc0311698	-2.767004
61	0x3fd7e2c2	1.6866076
62	0x3fab96e7	1.3405427
63	0xbf78fbf2	-0.9725944
64	0x3f960a8e	1.1721971
65	0xbe7dd3d5	-0.24787839
66	0xbf5864a6	-0.8452858
67	0x4030ecdc	2.7644567
68	0x3e5875c7	0.21138678
69	0x3fb0f367	1.382428
70	0xbdc6ab54	-0.09700647
71	0x4065af59	3.5888274
72	0xbf44505a	-0.76685107
73	0x3e91e5ed	0.28495732
74	0xbffe90d8	-1.9887953
75	0x3fd38b89	1.6526958
76	0x40116e0d	2.272342
77	0xbf724eba	-0.9465138
78	0xbbeb50e6	-0.0071812747
79	0x3fb5a890	1.4192066
80	0xbdf6a926	-0.12043981
81	0xbfa9ae1a	-1.3256257
82	0x3cf4443d	0.029817695
83	0xc00c902a	-2.196299
84	0xbf38a414	-0.72125363
85	0x402e68ae	2.7251391
86	0xbf89f339	-1.0777351
87	0xc02217b5	-2.532697
88	0x406cd462	3.7004628
89	0xbf9cbec7	-1.2245721
90	0x3f4fce89	0.8117452
91	0xc0020e9a	-2.0321412
92	0xc0497a50	-3.1480904
93	0x40262136	2.595777
94	0x3e118a98	0.14213026
95	0xbd627392	-0.055285998
96	0x3f941018	1.1567411
97	0x3f9613aa	1.1724751
98	0x3feae650	1.8351536
99	0xbe71dc48	-0.23619187
100	0xbf958987	-1.1682595
101	0x3f719bac	0.9437816
102	0x4021b7bb	2.526839
103	0x3fa3caa9	1.2796222
104	0xbf0067bb	-0.5015828
105	0xbf19629a	-0.5991608
106	0x3ee22f2c	0.44176614
107	0x3fb3a116	1.4033535
108	0x40aa4704	5.321169
109	0x3f1aa1a7	0.6040291
110	0xbf3d5a15	-0.7396558
111	0x3fd19038	1.6372137
112	0x3ea9a36f	0.33132502
113	0x3fc3339c	1.5250125
114	0xbf6c1fe3	-0.92236155
115	0xbf03414a	-0.512715
116	0x3c6d98d0	0.014501765
117	0x3eb0fb75	0.34566846
118	0x3eaf37a3	0.34222135
119	0x3f385821	0.72009474
120	0xbefe1f54	-0.49633276
121	0xc0638ed0	-3.5555916
122	0x3f11e7f6	0.5699457
123	0xbfbe74e4	-1.4879422
124	0x4033fc44	2.812272
125	0xc04450dd	-3.0674355
126	0xbe930f2b	-0.2872251
127	0xbfc6b232	-1.5523131
128	0x3f96a717	1.1769742
129	0xbf2384c5	-0.63874465
130	0x3e52153f	0.20515917
131	0xbfcf2809	-1.6184093
132	0xbf24cdd5	-0.64376575
133	0xc016f216	-2.3585258
134	0x400fd238	2.2472057
135	0xbfa76be2	-1.3079798
136	0xbfbff30f	-1.4996051
137	0x3f6db523	0.9285452
138	0x3ea8def5	0.32982603
139	0xbf986283	-1.1905063
140	0xbec4f3c7	-0.38467237
141	0x3e51fb7a	0.20506087
142	0x3ff21b3d	1.8914562
143	0xbf088515	-0.5332807
144	0x3f773eee	0.965804
145	0xbf4da6a0	-0.80332375
146	0x3f356d88	0.70870256
147	0x3f9a90cc	1.2075438
148	0x3eb195a6	0.34684485
149	0xbfa084fd	-1.2540585
150	0xbf822a23	-1.0169109
151	0x3ece5eeb	0.40306792
152	0x3f5f3d2a	0.87202704
153	0xbf0bab0d	-0.5455788
154	0xbfe4de1a	-1.788028
155	0x3f88cfef	1.0688456
156	0x3fc29f33	1.5204834
157	0x40736718	3.8031673
158	0x4009f973	2.1558502
159	0xbf6bbf1e	-0.92088497
160	0xbfe10e6a	-1.7582524
161	0xbbb40afe	-0.0054944744
162	0x3e4ba3d8	0.1988672
163	0xbed48165	-0.4150497
164	0xbed4af71	-0.415401
165	0x3f9b9580	1.2154999
166	0xbeadf239	-0.33973864
167	0xbef71517	-0.48258278
168	0xbf946d67	-1.1595887
169	0x3fb90b04	1.4456487
170	0xbf84bc37	-1.0369939
171	0x3f90177f	1.125717
172	0xc0176954	-2.3658037
173	0xc01e8506	-2.476869
174	0xc02fd1af	-2.747173
175	0xbf4330c4	-0.76246285
176	0x3e2fd4ad	0.17170973
177	0x4016089d	2.3442757
178	0x3f761e6c	0.9614017
179	0xbd7921d3	-0.060823273
180	0xbf145a2b	-0.57950085
181	0x3f3f1039	0.7463413
182	0x3ec97e62	0.39354235
183	0x3f234eb8	0.6379199
184	0xbf143491	-0.5789271
185	0x3ee0f057	0.43933365
186	0x401d8578	2.4612713
187	0xbf0c660b	-0.54843205
188	0x3ff505c5	1.9142386
189	0xbe1f37cc	-0.15548629
190	0x4001a498	2.025671
191	0xbddd6130	-0.10809553
192	0x40172344	2.3615274
193	0xbfa3b377	-1.2789143
194	0x3f20e212	0.62844956
195	0xbe4b7e10	-0.19872308
196	0x3ea3d995	0.3200194
197	0x3f5a143a	0.85187113
198	0x3f8721a1	1.0557138
199	0x3fc19f9c	1.5126834
200	0xbf894dca	-1.0726864
201	0xbeb34e40	-0.35020638
202	0xc0211f75	-2.517545
203	0x3fb4ddb3	1.4130157
204	0xc0cc62a2	-6.38704
205	0xbe056bb5	-0.13029368
206	0x3fe8c013	1.8183616
207	0x3ef1b375	0.47207227
208	0x3f41a871	0.75647646
209	0x3f0451b6	0.5168718
210	0x40c65174	6.197443
211	0xc025a2af	-2.5880544
212	0xbfae96ae	-1.3639734
213	0x402ef75d	2.7338479
214	0xc004bcef	-2.0740316
215	0xbfffeb02	-1.9993594
216	0xbff2ab77	-1.8958577
217	0x3fffd3f2	1.9986556
218	0x3d8c9003	0.068634056
219	0xbf9b29dd	-1.2122151
220	0x3fe17038	1.7612371
221	0xbf376290	-0.7163477
222	0x3d896f38	0.067106664
223	0xbe84f0a8	-0.25964856
224	0x3f5233e5	0.82110435
225	0xbf7978b8	-0.9744983
226	0xbf350fb5	-0.7072709
227	0xbf964b4d	-1.174173
228	0x404a9104	3.165101
229	0x405e2c00	3.4714355
230	0xbfa97154	-1.323771
231	0x3fdbf19d	1.718311
232	0xc039cdaa	-2.9031777
233	0xbfab513e	-1.3384168
234	0xbfbc50e2	-1.4712183
235	0x3f434b6d	0.76286966
236	0xbf407360	-0.7517605
237	0xbf8f05fe	-1.1173704
238	0x4066408d	3.5976899
239	0x3e63931e	0.2222409
240	0x3fbc9d17	1.473544
241	0x3f91789c	1.1364932
242	0x401c33f1	2.4406703
243	0x3e623f26	0.22094402
244	0xc00319e9	-2.0484564
245	0x400febdf	2.2487714
246	0xbfbf4747	-1.4943627
247	0xbfeadd96	-1.8348873
248	0xbfd6f483	-1.6793369
249	0x3ec36eb7	0.38170406
250	0xbc170002	-0.00921631
251	0xc00046da	-2.0043244
252	0x3f39f442	0.7263833
253	0xbf2ba727	-0.6705193
254	0x3f213fc2	0.6298791
255	0xbe7841db	-0.24243872

hidden1.bias f4 [20]
0	0x40f7c3c5	7.7426476
1	0x41992f11	19.147982
2	0x405167d6	3.2719626
3	0x4123fe33	10.24956
4	0x410c7572	8.778673
5	0x40cfd787	6.4950595
6	0x3f2f5a37	0.6849703
7	0x4155a77a	13.353388
8	0x41fa3aa8	31.27864
9	0xbf6e0624	-0.9297812
10	0xbf1c12ec	-0.6096637
11	0x42310e30	44.263855
12	0x3e1be27c	0.15223116
13	0x423cee20	47.232544
14	0x401cc2b8	2.4493847
15	0x404c5a97	3.1930292
16	0x3d8d786a	0.06907733
17	0x3f18db10	0.5970926
18	0x3fd0755d	1.6285816
19	0x3dd5ec9a	0.10445519

hidden2.weight f4 [10, 20]
0	0x406a414d	3.6602356
1	0x3daef8b0	0.08543527
2	0xc094baae	-4.647788
3	0xc023499f	-2.5513685
4	0xbec02793	-0.37530193
5	0x3df84543	0.121225856
6	0xbf2d9007	-0.67797893
7	0x40119f2f	2.2753408
8	0xc00c217f	-2.1895444
9	0x3eb45373	0.35219917
10	0xbf263926	-0.6493095
11	0xc015d391	-2.341038
12	0x3dabe0a4	0.08392456
13	0xbeb7d208	-0.3590243
14	0x3d8cac6b	0.068688236
15	0xbf81e9b6	-1.0149448
16	0xbce786e8	-0.02826257
17	0xbfb94bf7	-1.4476308
18	0x3f42bba8	0.7606759
19	0x3e07cc2e	0.13261482
20	0x40771881	3.8608706
21	0x4086031b	4.187879
22	0x3fddc42a	1.732549
23	0x3f5a6701	0.8531342
24	0x404ad722	3.1693807
25	0x4049d81d	3.1538155
26	0xc038a923	-2.8853233
27	0x3fd165a6	1.6359146
28	0x40b7af41	5.7401433
29	0x411c8b0d	9.783948
30	0x40a60616	5.188243
31	0x40ed385f	7.413131
32	0xbd6958dd	-0.056969512
33	0x410a1f2c	8.63261
34	0x4097d780	4.745056
35	0x405ea015	3.4785206
36	0x3dd7cc6c	0.10537037
37	0x406b3608	3.6751728
38	0x406a7bc6	3.6638045
39	0x3e2f7a32	0.17136458
40	0xbf9e2a00	-1.2356567
41	0xc05340d3	-3.3008316
42	0x3e18fecd	0.14940949
43	0xbf089988	-0.5335927
44	0x3f1a117f	0.60182947
45	0xbf15281b	-0.5826432
46	0xbf51d216	-0.8196119
47	0xbf2af97d	-0.6678694
48	0xbf6ef6ff	-0.93345636
49	0xbfa2e07e	-1.272476
50	0x3f999989	1.199998
51	0xc00cf120	-2.202217
52	0x3e301655	0.17196019
53	0xc023acfb	-2.557433
54	0xbda29112	-0.07937826
55	0x4001e33f	2.029495
56	0x3dd4e6f8	0.10395616
57	0xbd092027	-0.03347793
58	0x40d2c349	6.5863385
59	0x3e40cdf0	0.18828559
60	0xbf0c0ec5	-0.54710037
61	0x3e21be61	0.1579528
62	0xbdadcb61	-0.08486057
63	0xbdf9c460	-0.12195659
64	0xbe91668e	-0.28398556
65	0xbd833a17	-0.06407564
66	0x3f1e1d18	0.61763144
67	0x3fb78527	1.433751
68	0xbdb2bf6b	-0.08727916
69	0x3e3a0360	0.1816535
70	0xbe953a40	-0.29146004
71	0xbe14d414	-0.14534026
72	0xbe043826	-0.12912044
73	0xbeb1ea33	-0.34748992
74	0xbf86296e	-1.0481393
75	0x3eed4a45	0.46345726
76	0x3b49e100	0.0030804276
77	0xbf574c1e	-0.8410052
78	0x3e11fb03	0.1425591
79	0x3e1f6e8e	0.15569517
80	0xbf81863b	-1.0119089
81	0x3fbae935	1.4602419
82	0x3f94320b	1.1577772
83	0xbf4b3dc0	-0.793911
84	0x3f79a437	0.97516197
85	0x4067a771	3.6195948
86	0xbfb30fc2	-1.3989184
87	0xbf03b22f	-0.5144376
88	0x3f511305	0.81669647
89	0xbe803b1b	-0.25045094
90	0x3e41edfc	0.1893844
91	0x3e77ec74	0.24211293
92	0x3d1c0d3e	0.038098566
93	0xbddfef46	-0.1093431
94	0xbf857d67	-1.0428895
95	0xbf68515b	-0.9074914
96	0xbd168848	-0.03675106
97	0xbfaafb73	-1.3357986
98	0x3fbcf17c	1.4761195
99	0x3e32a100	0.17444229
100	0x3fa4d082	1.2876132
101	0xc0520439	-3.2815077
102	0x3e80fa0d	0.25190774
103	0x40068aeb	2.1022289
104	0xbf7d50c4	-0.98951364
105	0x3f2af9da	0.66787493
106	0x3ebc6b3f	0.36800572
107	0xbfc4b5f5	-1.5368029
108	0xc03de0e3	-2.966851
109	0xbfb4deb0	-1.4130459
110	0xc04455fb	-3.0677478
111	0xc0413cc4	-3.0193338
112	0x3d94bfe5	0.072631635
113	0xc09d6a83	-4.919252
114	0xbcb1b42e	-0.021692362
115	0x3e805511	0.250649
116	0x3de39144	0.111116916
117	0xbfa976e5	-1.3239409
118	0x3f1c3dc4	0.61031747
119	0xbe5f660f	-0.21816276
120	0xc01dd4a5	-2.4661038
121	0x40582133	3.3770263
122	0xbf307c75	-0.68939906
123	0x3f45b391	0.7722712
124	0x3f57acf4	0.8424828
125	0x3ed2912b	0.4112638
126	0x3f47befd	0.780258
127	0xc02a9f97	-2.6659906
128	0x402048dc	2.504447
129	0x3f1e3bed	0.6181019
130	0xbc7b455e	-0.015336363
131	0x3f2d0d11	0.6759806
132	0x3be7b8d8	0.0070715956
133	0x40040552	2.0628247
134	0x408ec64a	4.461705
135	0x403e5508	2.97394
136	0xbe49aaa1	-0.19693996
137	0x3f32ef34	0.69896245
138	0xc0124a29	-2.2857764
139	0x3df24868	0.11830217
140	0x40020534	2.0315676
141	0xc07adfa8	-3.919901
142	0x400a3d68	2.159998
143	0xc036710c	-2.8506498
144	0x3fb1663c	1.3859324
145	0xc00c52ec	-2.1925611
146	0x3fd5d12f	1.6704463
147	0xbf4ad9f8	-0.79238844
148	0xbfa6d5ea	-1.3034031
149	0xbe2d3801	-0.16915895
150	0xbf4d02dc	-0.8008249
151	0xbfbf6f7f	-1.4955901
152	0x3e1cac63	0.15300135
153	0xbf82d06d	-1.0219857
154	0x3dc12eab	0.09432729
155	0x3fb32428	1.3995409
156	0xbd9c9946	-0.07646422
157	0xbff3f9b1	-1.9060575
158	0xc0476706	-3.115663
159	0x3d854fb4	0.06509343
160	0x3fba28af	1.4543666
161	0x3ee16ea2	0.4402972
162	0x3ff7f008	1.9370127
163	0xbfee6e5d	-1.862743
164	0x3e5856a8	0.21126807
165	0x3d5ecc5b	0.054394107
166	0x3f789b77	0.9711222
167	0xbd9d6d29	-0.07686836
168	0x3edc0fde	0.42980856
169	0x3f3450e2	0.7043592
170	0xbd33afb1	-0.043868724
171	0x3e8776d5	0.2645785
172	0x3e63f0f6	0.22259888
173	0x3fac2ba1	1.3450814
174	0x3e8051bf	0.25062367
175	0xbea48328	-0.32131314
176	0xbced87b0	-0.028995365
177	0xbef13b1f	-0.47115418
178	0xc0498af2	-3.1491055
179	0xbcc7d7b8	-0.024394855
180	0x3fa7410a	1.3066723
181	0x3f6c4f68	0.92308664
182	0x3f39ec95	0.7262662
183	0xc0254c32	-2.5827756
184	0xbf03fd14	-0.5155804
185	0x3e6ee6b9	0.23330201
186	0x3e3ba76c	0.18325585
187	0xbf37562b	-0.71615857
188	0xc08a4b80	-4.3217163
189	0xbfb34a0e	-1.4006975
190	0xc005911c	-2.0869818
191	0xc0802363	-4.0043197
192	0xbe5752e0	-0.21027708
193	0xc09a365a	-4.8191347
194	0x3ec9359c	0.39298713
195	0xbf845935	-1.0339724
196	0xbd97e15a	-0.07416029
197	0x407c09a0	3.9380875
198	0x3e7c0d3f	0.24614428
199	0x3e6443a2	0.22291425

hidden2.bias f4 [10]
0	0xbebec54b	-0.37259898
1	0x407cd127	3.9502656
2	0xbee563ce	-0.44802707
3	0x3dfa18e4	0.12211779
4	0xbeac1226	-0.33607596
5	0xbed01f76	-0.40649003
6	0xbf16d89d	-0.58924276
7	0x3e0566f9	0.13027562
8	0x3e93f43d	0.28897277
9	0xbf229e5b	-0.6352288

output.weight f4 [1, 10]
0	0xc0aebc02	-5.46045
1	0x4109e066	8.617285
2	0xc09bb0f0	-4.865349
3	0x4009d8aa	2.1538491
4	0xc074a816	-3.8227592
5	0xc0a7bc8c	-5.241766
6	0xc0b41217	-5.627208
7	0xc0b4c60b	-5.649175
8	0x40676d37	3.616041
9	0xc0b5f26f	-5.685844
